saved_model_states/savedmodel_displacement_10000.pkl (torch, 627460 bytes, 25 tensors)

weight f4 [64, 3]
0	0x3d967e34	0.0734829
1	0x3e9a7cac	0.30173242
2	0x3e883a60	0.26607037
3	0xbe60b454	-0.2194379
4	0x3e15e4be	0.1463804
5	0x3f05abc0	0.52215195
6	0xbe32462f	-0.17409585
7	0x3d2a9408	0.04164508
8	0xbeb639eb	-0.35591063
9	0xbe52b6bd	-0.20577522
10	0x3bca5999	0.0061752317
11	0xbe7dd272	-0.2478731
12	0x3cf2d9d0	0.029644877
13	0x3e193947	0.14963256
14	0xbe8cc675	-0.2749516
15	0xbec2ff15	-0.38085237
16	0x3ebe485c	0.3716458
17	0xbec03248	-0.37538362
18	0xbba4b6c7	-0.0050266716
19	0x3e642f66	0.22283706
20	0xbe939df9	-0.2883146
21	0xbeb590fb	-0.35462174
22	0x3f12a418	0.5728164
23	0x3d9497c0	0.072555065
24	0x3e2ba0c3	0.16760544
25	0x3dc388b3	0.09547558
26	0x3eac655e	0.33671087
27	0xbe4da7e0	-0.2008357
28	0xbd4ba21b	-0.049715143
29	0xbe43db13	-0.19126539
30	0xbecca50f	-0.3996968
31	0x3e9f8e20	0.3116312
32	0x3f0c223c	0.5473974
33	0xbe6a8d5c	-0.22905487
34	0x3d123514	0.03569515
35	0xbd6929bd	-0.05692457
36	0xbead3a2f	-0.33833453
37	0x3e25b301	0.16181566
38	0xbdfcd930	-0.12346113
39	0xbee31eff	-0.44359586
40	0xbe9f82bd	-0.31154433
41	0xbef4d5cb	-0.4781936
42	0xbe9ea6a9	-0.30986527
43	0x3ea29da3	0.31760892
44	0xbccbdbff	-0.024885176
45	0x3da98bc0	0.08278608
46	0x3deda22b	0.11603197
47	0xbe80bf0a	-0.2514575
48	0xbee27e57	-0.44237015
49	0x3dbaba54	0.091175705
50	0xbf0c22d2	-0.5474063
51	0xbc050e2f	-0.008121057
52	0x3e665af0	0.22495627
53	0x3e3b1cee	0.18272755
54	0xbc849bc3	-0.016187554
55	0xbef81d83	-0.48460016
56	0xbe08eaf8	-0.13370883
57	0xbdfe6a57	-0.124226265
58	0xbe6cda15	-0.23130067
59	0x3e67a987	0.22623263
60	0x3e93f9c2	0.28901488
61	0x3e0afe2c	0.13573521
62	0x3ea4576c	0.32097948
63	0x3dd1bca9	0.10241062
64	0xbdf400b2	-0.11914195
65	0x3edf2daa	0.43589526
66	0x3da7f8c7	0.082017474
67	0x3e3f567b	0.18685333
68	0x3f13159b	0.5745484
69	0x3f10947c	0.5647657
70	0x3c9a9309	0.01886894
71	0xbe47810f	-0.19482826
72	0x3e9fac66	0.31186217
73	0x3e5fe9f3	0.21866588
74	0xbe50a131	-0.2037399
75	0x3eafc9d3	0.34333667
76	0x3ee6cb3c	0.4507693
77	0x3f0d9cda	0.5531746
78	0x3eccd3ed	0.40005437
79	0x3f08596e	0.5326146
80	0xbe948063	-0.290042
81	0xbeebfe1a	-0.46092302
82	0x3e79c2f1	0.2439077
83	0x3f0acfd2	0.5422336
84	0xbe5fdfe3	-0.2186275
85	0xbdb6f6d7	-0.089338
86	0xbdfaa9ba	-0.12239404
87	0x3e2c3fbd	0.16821189
88	0xbeda7e05	-0.4267427
89	0x3bbeef90	0.005826898
90	0xbeafa52c	-0.34305704
91	0x3f0a0b79	0.53923756
92	0x3efa224d	0.48854294
93	0x3ee2db2e	0.44307846
94	0x3f06969e	0.52573574
95	0xbf2130cd	-0.6296509
96	0x3efb45c1	0.49076656
97	0xbebc7df6	-0.3681485
98	0x3ceb48d1	0.028721245
99	0xbe456eba	-0.1928052
100	0xbdec86ac	-0.11549124
101	0x3f0d7dce	0.5527009
102	0xbda71a3a	-0.08159299
103	0xbdfde8e8	-0.12397939
104	0x3ead7bc2	0.33883482
105	0x3f0d726c	0.5525272
106	0x3ecfd02a	0.40588504
107	0xbd24ac0a	-0.04020313
108	0xbf079b93	-0.5297176
109	0x3e332f8f	0.17498611
110	0x3e7a0cb1	0.24418904
111	0xbe40688c	-0.18789881
112	0x3e67ab45	0.22623928
113	0x3deb9376	0.11502735
114	0xbe9857e7	-0.29754564
115	0x3eae947a	0.34097654
116	0xbe6bcfff	-0.23028563
117	0xbd49345e	-0.049122207
118	0xbe69089c	-0.2275719
119	0xbecd0c07	-0.4004824
120	0x3ef7b795	0.4838225
121	0x3ef03457	0.46914932
122	0x3dd5cea0	0.10439801
123	0x3efa7ca6	0.48923224
124	0x3ec0184c	0.37518537
125	0xbebaa587	-0.36454412
126	0x3e47a6d1	0.19497229
127	0x3e04f5f9	0.12984456
128	0x3d618050	0.05505401
129	0xbe083d75	-0.13304694
130	0xbeef4c38	-0.46737838
131	0xbe528135	-0.20557101
132	0xbece10bd	-0.40247145
133	0xbc45d69c	-0.012075093
134	0xbee0a210	-0.43873644
135	0x3ed277bd	0.41106978
136	0xbb85ca5c	-0.004082961
137	0xbe8050eb	-0.25061736
138	0xbd9370ea	-0.07199271
139	0xbedb9ec3	-0.42894563
140	0x3f1fab67	0.62370914
141	0x3e1c5ada	0.15269032
142	0xbe182d86	-0.14861116
143	0xbf0e9cbb	-0.557079
144	0xbddc993a	-0.10771413
145	0x3ee95c6c	0.45578325
146	0xbede52b5	-0.43422475
147	0x3ec7bd18	0.39011455
148	0xbe0de45d	-0.13856645
149	0xbec02c11	-0.3753362
150	0xbec886df	-0.39165398
151	0xbf0939c8	-0.5360379
152	0xbe108955	-0.14114888
153	0xbf06721a	-0.52517855
154	0x3ed8621c	0.42262352
155	0x3dda79f0	0.10667789
156	0x3ecd817b	0.40137848
157	0x3e8cd502	0.27506262
158	0xbdf47442	-0.11936237
159	0x3edc2b20	0.43001652
160	0x3ef8e8af	0.48615023
161	0x3dce53a0	0.10074544
162	0x3b390cbe	0.0028236355
163	0xbddacd55	-0.10683695
164	0xbef92420	-0.48660374
165	0x3e00d7ce	0.12582323
166	0xbd323457	-0.043506946
167	0x3e1eacec	0.15495652
168	0x3ee8b5c4	0.45451176
169	0x3e46739c	0.19380039
170	0xbe669c8e	-0.22520658
171	0xba99aa30	-0.0011723693
172	0xbd3f11c3	-0.0466478
173	0x3efaa35a	0.48952752
174	0xbda3b3e8	-0.07993299
175	0xbf0ceffe	-0.550537
176	0x3ec4d177	0.3844106
177	0xbe965ccf	-0.29367682
178	0x3d11677c	0.03549908
179	0x3f0c9377	0.54912513
180	0x3eb309a7	0.34968302
181	0x3e366a4f	0.17813991
182	0xbec9b995	-0.393994
183	0x3e146434	0.1449135
184	0xbedfd67e	-0.43718332
185	0xbdcae9a4	-0.09907845
186	0xbe540c26	-0.2070776
187	0xbe52c89e	-0.20584342
188	0x3dc7a757	0.097487144
189	0xbed6d9f3	-0.41963157
190	0x3eab10da	0.33411294
191	0x3ebf7df4	0.37400782

bias f4 [64]
0	0x3e3d0288	0.18457997
1	0xbef72158	-0.48267627
2	0xbe71b224	-0.23603112
3	0xbcc6238a	-0.024186868
4	0x3d75cfa0	0.06001246
5	0x3ea08be3	0.31356725
6	0xbee40fe8	-0.44543386
7	0xbe2ab069	-0.16668858
8	0x3df451ed	0.119296886
9	0x3f0c5f15	0.54832584
10	0xbe98012d	-0.29688397
11	0x3edb4b15	0.4283072
12	0x3ec99700	0.39373016
13	0x3ee26b88	0.44222665
14	0xbd060551	-0.032719914
15	0xbeced038	-0.40393233
16	0xbe90e2f2	-0.28298146
17	0x3ed982f6	0.42482728
18	0xbf13a586	-0.57674444
19	0xbddf9818	-0.109176815
20	0xbe0afb2d	-0.13572378
21	0xbdcf31d3	-0.10116925
22	0xbeb8fe82	-0.36131674
23	0x3f06b637	0.5262179
24	0xbe7264ee	-0.23671314
25	0xbeafb2c5	-0.34316078
26	0xbe3ddd98	-0.18541563
27	0x3eec3c1a	0.46139604
28	0x3f058ef7	0.5217127
29	0xbd0a05ae	-0.033696823
30	0x3eafb68d	0.34318963
31	0x3efc4b8b	0.49276385
32	0x3e7b541a	0.24543801
33	0x3d90d45c	0.07071754
34	0xbeb8f4f4	-0.36124384
35	0x3ee6ccaf	0.45078036
36	0xbda6c956	-0.081438705
37	0xbe33664e	-0.17519495
38	0x3d4b0265	0.04956283
39	0x3dd99275	0.106236376
40	0xbe596b56	-0.21232352
41	0x3e75b2ac	0.23993939
42	0xbf10f75e	-0.5662745
43	0x3e9c79db	0.30561718
44	0xbefbf5fa	-0.49211103
45	0x3e687b41	0.22703268
46	0x3e80ea86	0.25178927
47	0x3ee38967	0.44440767
48	0xbcbc5b38	-0.022992715
49	0x3f06eb9e	0.52703273
50	0x3d9f0de1	0.07766319
51	0x3e34882a	0.17630067
52	0xbeac2856	-0.33624524
53	0xbef17c5d	-0.47165194
54	0xbf0a7a45	-0.5409282
55	0xbf07348e	-0.5281457
56	0xbebb79af	-0.36616275
57	0xbefa37d1	-0.4887071
58	0xbeee43af	-0.46536013
59	0xbc69b941	-0.014265359
60	0xbf011717	-0.5042586
61	0x3e847e2f	0.2587752
62	0xbeaf9e2f	-0.34300372
63	0xbe901dbb	-0.28147683

weight f4 [64, 64]
0	0x3df8a8be	0.1214156
1	0x3e35e107	0.17761622
2	0xbcde8880	-0.027164698
3	0xbd277f7c	-0.040893063
4	0xbb61b1f8	-0.0034438353
5	0x3d816eae	0.063199386
6	0xbde5264c	-0.11188945
7	0xbdb5e2f5	-0.08881179
8	0x3c8bf838	0.017086133
9	0xbd9beccf	-0.07613527
10	0x3e060479	0.13087644
11	0x3d087d47	0.0333226
12	0x3d03778e	0.032096438
13	0xbd4e9e99	-0.05044422
14	0xbd03fb5a	-0.03222213
15	0x3dba31e2	0.09091546
16	0x3c18b9c0	0.00932163
17	0x3deca1a7	0.1155427
18	0x3d7c2938	0.061562747
19	0xbc8eabc0	-0.017415881
20	0xbdc4cd12	-0.096094266
21	0x3df46fe8	0.11935407
22	0x3d9ffd1f	0.07811951
23	0x3cb55f5d	0.0221402
24	0xbd1519de	-0.036401622
25	0xbdbf7318	-0.09348124
26	0x3d907d5f	0.07055163
27	0xbde6b1fb	-0.11264416
28	0x3dc747db	0.09730502
29	0xbccfdbef	-0.025373427
30	0xbdea3d32	-0.11437453
31	0x3d6f827a	0.05847404
32	0xbdcaf396	-0.099097416
33	0x3b76c516	0.0037654093
34	0xb9609000	-0.00021415949
35	0x3ddbcbd5	0.10732237
36	0xbd178b82	-0.03699828
37	0xbd3e066e	-0.04639285
38	0xbcaa28d0	-0.020771414
39	0x3de8a9ed	0.11360536
40	0x3c5e35a3	0.013562593
41	0x3dff5d11	0.12468923
42	0x3bd89880	0.0066099763
43	0xbc8da338	-0.017289743
44	0x3c48a360	0.012245983
45	0x3df1927f	0.1179552
46	0x3dcaad7d	0.098963715
47	0x3d5c03a8	0.053714424
48	0x3d8210b3	0.063508414
49	0xbda079c8	-0.07835728
50	0x3dee7630	0.11643636
51	0xbde09968	-0.1096676
52	0xbd29d594	-0.04146345
53	0x3dbe21d7	0.09283798
54	0xbde25392	-0.11051096
55	0x3b00ea00	0.0019670725
56	0x3b4bc882	0.0031094854
57	0x3da82337	0.08209842
58	0xbc6f6c00	-0.014613152
59	0x3d87fa34	0.06639519
60	0xbdf265de	-0.11835836
61	0xbdecdf79	-0.115660615
62	0x3cbe65a0	0.023241818
63	0xbd97408f	-0.073853604
64	0x3d14314f	0.036179837
65	0xbc67d86a	-0.014150718
66	0xbd3146a8	-0.043280274
67	0xbdfd77e4	-0.12376383
68	0xbadcc080	-0.0016842037
69	0xbd2335ce	-0.039846234
70	0xbd1eaad8	-0.038737148
71	0x3d4453a3	0.047931325
72	0xbd5da108	-0.05410865
73	0x3d344ebf	0.04402041
74	0x3df6898f	0.12037956
75	0x3cf5a756	0.029987019
76	0xbd8021da	-0.06256457
77	0xbddecd92	-0.10879053
78	0x3ca3a059	0.01997392
79	0xbb6d8840	-0.0036244541
80	0xbd218188	-0.03943017
81	0xbca0a2c1	-0.019608857
82	0x3d3aea9c	0.045633897
83	0xbdbd8d48	-0.09255463
84	0x3cf3b8a4	0.02975113
85	0x3dc95e2b	0.09832414
86	0xbd8c4010	-0.068481565
87	0xbda11927	-0.078661256
88	0xbd4450cc	-0.047928616
89	0xbd4a8bdb	-0.049449783
90	0xbdd489cc	-0.10377845
91	0x3d1ee122	0.038788922
92	0x3d4b3aa7	0.049616482
93	0x3ccc47e0	0.024936616
94	0x3db45983	0.088061355
95	0x3daf7e62	0.085690275
96	0xbdec7e4c	-0.11547527
97	0xbd82246a	-0.06354602
98	0xbd96edf0	-0.07369602
99	0xbd54cffb	-0.051956158
100	0xbd8da722	-0.06916644
101	0xbdf61848	-0.1201635
102	0xbdf010f4	-0.117219836
103	0x3ce836a8	0.028346375
104	0xbd171538	-0.03688547
105	0x3de5f803	0.11228945
106	0x3bce54c0	0.006296724
107	0xbd46e1f8	-0.048555344
108	0xbd61e22c	-0.055147335
109	0x3bfd2c20	0.0077262074
110	0x3c7b1091	0.015323774
111	0x3cfd8328	0.03094633
112	0x39d09c51	0.00039789316
113	0x3d9a8106	0.075441405
114	0xbd037d30	-0.03210181
115	0xbc8b8964	-0.017033286
116	0x3d9a6fc2	0.07540847
117	0x3b9f64b6	0.0048643006
118	0x3b1883c0	0.0023271888
119	0x3be20080	0.0068970323
120	0x3c5ed700	0.013601065
121	0xbdfe9ff0	-0.124328494
122	0x3d0272f8	0.031847924
123	0x3b8d747c	0.0043168645
124	0x3bdf9600	0.0068233013
125	0xbdce638e	-0.10077582
126	0xbda2f5a2	-0.07957007
127	0xbd4b0f4e	-0.049575143
128	0xbdddab66	-0.10823707
129	0xbdbc7fc4	-0.09204057
130	0xbdaa4438	-0.08313793
131	0x3b13c580	0.002254814
132	0x3db25afc	0.0870876
133	0x3daaa85a	0.08332892
134	0x3dc60094	0.09668079
135	0xbd21e478	-0.039524525
136	0xbdb49f74	-0.08819476
137	0xbd3f58d4	-0.046715572
138	0x3da6eb38	0.08150333
139	0xbc817ed0	-0.01580754
140	0x3da0aaa2	0.078450456
141	0xbdf173d4	-0.117896706
142	0xbddbc300	-0.10730553
143	0xbdc7a3ac	-0.09748015
144	0xbd8cab74	-0.068686396
145	0x3b87e320	0.0041469485
146	0xbc5d4ad0	-0.013506606
147	0x3de5c0f6	0.11218445
148	0xbd6c8ed0	-0.057753384
149	0x3dba7e8a	0.09106167
150	0x3d321b0c	0.043482825
151	0xbdde4b04	-0.10854152
152	0xbdd407b0	-0.10353029
153	0xbdfea56a	-0.12433894
154	0xbd27d68c	-0.040976092
155	0x3d892ccc	0.066979975
156	0xbca030d8	-0.01955454
157	0x3df1de92	0.1181003
158	0xbd84c3e8	-0.06482679
159	0xbd9c3040	-0.076263905
160	0x3cabc158	0.020966217
161	0x3d3e79c8	0.04650286
162	0xbd9be29a	-0.0761158
163	0x3da1f044	0.07907155
164	0x3debdbd4	0.11516538
165	0xbc869888	-0.016430154
166	0x3c795710	0.015218511
167	0x3d0fc530	0.035100162
168	0xbcc2c710	-0.023776561
169	0xbd36a338	-0.04458925
170	0x3dd87ca8	0.10570651
171	0xbdb08ff6	-0.08621208
172	0x3d65731c	0.05601798
173	0x3d034304	0.032046333
174	0xbd7e2c6c	-0.062054083
175	0x3dde1c4a	0.108452395
176	0x3bba94a0	0.005693987
177	0x3d658194	0.05603178
178	0xbddd248c	-0.107979864
179	0xbdd3122e	-0.10306202
180	0x3d8bee42	0.068325534
181	0x3d32ce48	0.043653756
182	0x3d975494	0.07389179
183	0x3decb458	0.11557835
184	0x3d8e1282	0.06937124
185	0x3d70668c	0.058691546
186	0x3c88f000	0.016716003
187	0xbd902426	-0.07038145
188	0xbd6e7110	-0.058213294
189	0x3c8cdd90	0.017195493
190	0x3d83b6b2	0.06431331
191	0x3d0b83f8	0.034061402
192	0x3d66f59c	0.056386575
193	0xbd9f2450	-0.07770598
194	0x3dc7da9e	0.09758495
195	0xbcb42650	-0.021990925
196	0xbcba11a0	-0.022713482
197	0xbdba2832	-0.09089698
198	0xbd07e208	-0.033174545
199	0x3a1c0300	0.0005951375
200	0xbd8b2f64	-0.067961484
201	0xbcda0878	-0.026615366
202	0xbd8e0fea	-0.06936629
203	0xbdec103a	-0.115265325
204	0x3d44e8a8	0.04807344
205	0xbac3f380	-0.0014949888
206	0xbc800e28	-0.01563175
207	0xbdf4be4c	-0.11950359
208	0x3d458528	0.04822269
209	0xbdc38a3a	-0.09547849
210	0x3d0f6370	0.03500694
211	0x3de878ea	0.113511875
212	0x3c4eb490	0.012616292
213	0x3dbf6068	0.0934456
214	0xbd61a0bc	-0.05508493
215	0xbdea9e20	-0.11455941
216	0x3c6935f0	0.014234051
217	0x3adad380	0.0016695112
218	0x3dd17cc4	0.10228875
219	0xbdaefe48	-0.08544594
220	0xbb94bfa0	-0.004539445
221	0xbdf35728	-0.11881858
222	0xbdc2cf8c	-0.09512243
223	0x3df7a498	0.12091941
224	0xbd989366	-0.07449989
225	0x3d4e4f48	0.050368577
226	0x3ca750c0	0.020424247
227	0x3d9908b4	0.07472363
228	0x3c8c8668	0.017153934
229	0x3c9e2910	0.01930669
230	0xbd0aa4d8	-0.033848614
231	0xbdd059b2	-0.10173358
232	0xbd19bf20	-0.037535787
233	0xbdc38698	-0.09547156
234	0x3dcb2dd6	0.09920852
235	0xbd243874	-0.0400929
236	0x3d11fb20	0.035639882
237	0x3d0c7804	0.034294143
238	0xbd821718	-0.06352061
239	0xbdb67cd8	-0.08910531
240	0xbc3443d0	-0.011002496
241	0x3c0c9ad0	0.008581832
242	0x3d511130	0.051041782
243	0x3d9fa330	0.077947974
244	0xbd723c50	-0.05913955
245	0xbda31576	-0.07963078
246	0x3d37c594	0.04486616
247	0xbd94e026	-0.072693154
248	0x3de7c4a4	0.11316803
249	0x3cec2818	0.028827712
250	0xbdc85f0e	-0.09783755
251	0xbc89f948	-0.0168425
252	0xbdf3083c	-0.11866805
253	0x3da609aa	0.08107312
254	0x3dbaf534	0.091288
255	0x3bca8b60	0.0061811656

bias f4 [64]
0	0x3cba4dad	0.022742117
1	0xbdea46f1	-0.11439312
2	0xbdf15034	-0.11782876
3	0x3d0bd0c8	0.034134656
4	0x3dcb68b4	0.0993208
5	0xbaf04c44	-0.0018333276
6	0xbdc4d332	-0.09610595
7	0xbd0bcec6	-0.03413274
8	0x3d22cd04	0.0397463
9	0xbd946ca0	-0.07247281
10	0x3d044ef7	0.03230187
11	0x3c897732	0.01678047
12	0xbd8dbb44	-0.06920484
13	0xbcebb7e4	-0.02877421
14	0x3dc6e6bd	0.097119786
15	0xbcc17df0	-0.023619622
16	0xbc97acbc	-0.018514983
17	0x3d46252a	0.048375286
18	0x3d1957bd	0.03743719
19	0xbdb1129a	-0.08646126
20	0x3dd56ade	0.10420774
21	0x3c9c4860	0.01907748
22	0x3d989719	0.074506946
23	0x3ddd521b	0.10806676
24	0xbd7a9551	-0.061177555
25	0xbdaabd3d	-0.083368756
26	0xbdaf593e	-0.085619435
27	0x3c6be792	0.014398472
28	0x3cac2b1a	0.021016646
29	0x3cb9c8f0	0.022678822
30	0xbd67ca78	-0.056589574
31	0x3dbd96d8	0.09257287
32	0xbb923a3d	-0.004462509
33	0x3cebd6b5	0.028788904
34	0x3d4e97c1	0.050437693
35	0x3dd1ea5c	0.10249779
36	0x3ca6d5bd	0.02036559
37	0x3ca90e3c	0.02063667
38	0xbded63d6	-0.11591308
39	0x3de4ae8d	0.111661054
40	0xbd192bec	-0.037395403
41	0xbd1fa94b	-0.03897981
42	0x3db55a78	0.08855146
43	0xbd74bfe1	-0.059753302
44	0xbdb6e3b4	-0.0893015
45	0xbd84b9cc	-0.064807504
46	0xbdc9f8f3	-0.098619364
47	0xbce97c58	-0.028501675
48	0xbde316bf	-0.11088323
49	0xbc76a523	-0.01505402
50	0x3d1b581e	0.037925832
51	0xbd829698	-0.0637638
52	0xbd43e594	-0.047826365
53	0x3df8f582	0.12156202
54	0x3d3e4a7e	0.04645776
55	0xbd02e244	-0.031954065
56	0x3cf1bd45	0.029509196
57	0x3b43b5b8	0.0029862951
58	0xbd8960b5	-0.067078985
59	0xbde480ab	-0.11157354
60	0xbdd5405e	-0.10412668
61	0xbce35699	-0.027751254
62	0x3dca4421	0.09876276
63	0x3d1609c3	0.036630403

weight f4 [256, 64]
0	0xbd2fcf3a	-0.042922236
1	0xbd7b2ddb	-0.061323028
2	0xbd77ee44	-0.060529962
3	0x3d840c12	0.06447615
4	0x3d0b56f5	0.034018476
5	0x3d5cf9f0	0.053949296
6	0xbcd5ccc2	-0.026098613
7	0x3dff4519	0.12464351
8	0xbd8fb500	-0.07016945
9	0x3d27e0f0	0.040986
10	0x3d5cbf88	0.053893596
11	0x3d548275	0.051882226
12	0xbc8bf6a8	-0.017085388
13	0xbdff36f7	-0.124616556
14	0x3dbc3cee	0.09191309
15	0xbde4f4d5	-0.111795105
16	0xbddde0be	-0.10833882
17	0xbd4284c4	-0.047489896
18	0x3c65aba0	0.014017969
19	0x3d4eb720	0.05046761
20	0x3dc7a6f8	0.09748644
21	0x3d77c901	0.060494427
22	0x3caf92b2	0.021432254
23	0xbd214f50	-0.03938228
24	0xbcfa72b8	-0.03057228
25	0x3d4f89d8	0.050668567
26	0xbb99adc7	-0.0046899053
27	0x3dc9b042	0.09848072
28	0x3dc23835	0.09483377
29	0xbceae32e	-0.02867278
30	0x3d7b4c38	0.061351985
31	0xbd729ae5	-0.05922975
32	0xbde4b107	-0.11166578
33	0x3de7aa4c	0.113117784
34	0x3e004373	0.1252573
35	0xbdb3b0f2	-0.08773984
36	0xbc1b9d45	-0.009497945
37	0x3df813fc	0.12113187
38	0xbd8fc2bd	-0.07019565
39	0xbdf8d92a	-0.12150796
40	0x3de8f23e	0.11374329
41	0xbd502f5e	-0.050826423
42	0x3db6fccc	0.08934936
43	0x3da4cc94	0.08046833
44	0xbd8bb65f	-0.06821894
45	0xbc95e4c0	-0.018297553
46	0xbc38f32c	-0.011288445
47	0xbd533c54	-0.051571205
48	0x3dafeb57	0.085898094
49	0xbd77713c	-0.060410723
50	0xbdccbcfa	-0.09996982
51	0x3c100160	0.00878939
52	0x3d9d45fe	0.076793656
53	0xbd6aa92e	-0.05729025
54	0x3de01f14	0.10943428
55	0xb906a400	-0.0001284033
56	0x3e08362d	0.13301916
57	0x3da292ee	0.07938181
58	0xbdafd48f	-0.08585464
59	0x3da04e9f	0.07827496
60	0x3d17c41e	0.037052266
61	0xbddb956a	-0.10721858
62	0x3d6111a7	0.054948475
63	0xbdac13a7	-0.08402186
64	0x3d349b9d	0.044093717
65	0xbe46ecb2	-0.1942623
66	0xbbbca4b6	-0.0057569398
67	0x3de80713	0.11329474
68	0xbdb6df74	-0.08929339
69	0x3d4c3400	0.04985428
70	0xbd8600d2	-0.06543125
71	0x3c8e20b5	0.01734958
72	0x3e31b0d8	0.17352617
73	0x3dd1ead2	0.102498665
74	0x3c6bd090	0.014392987
75	0xbd1189bd	-0.035531748
76	0xbe8635a4	-0.262128
77	0xbe13c429	-0.14430298
78	0x3b8ac94d	0.0042354227
79	0xbdca49a6	-0.098773286
80	0xbda5e7ac	-0.081008285
81	0x3cda9750	0.02668348
82	0xbd86e1d0	-0.06586039
83	0xbdb86130	-0.09002912
84	0x3d9f0486	0.07764535
85	0xbdb0c950	-0.08632147
86	0xbe0716f7	-0.13192354
87	0xbc12e880	-0.008966565
88	0xbd6798e0	-0.056542277
89	0x3d9f671c	0.077833384
90	0x3c29a668	0.010354616
91	0x3d03b685	0.032156486
92	0x3d8b53b0	0.068030715
93	0x3d7bfd2e	0.061520748
94	0xbd2c5d07	-0.042080905
95	0xbdbd406c	-0.09240803
96	0x3d620864	0.055183783
97	0x3d96ba70	0.07359779
98	0xbe43dfa1	-0.19128276
99	0xbd0c04f8	-0.034184426
100	0xbe101e75	-0.14074118
101	0xbce354c0	-0.027750373
102	0x3ccf2a07	0.025288595
103	0xbdc46c5a	-0.09590979
104	0x3cfc00b0	0.030762047
105	0xbde57f73	-0.1120595
106	0xbd8f4b78	-0.069968164
107	0x3db1157c	0.08646676
108	0xbd7ecaca	-0.062205113
109	0x3ddabd1a	0.106805995
110	0x3e03a57e	0.12856099
111	0x3d81f4de	0.06345533
112	0xbc94dd9e	-0.018172082
113	0x3d9432a4	0.072362214
114	0x3df4bbf2	0.1194991
115	0x3dfedbee	0.12444292
116	0x3dc73400	0.09726715
117	0x3e100aa4	0.14066559
118	0xbdfbf2b6	-0.12302153
119	0xbd8891d8	-0.066684425
120	0x3d9fe79d	0.078078486
121	0x3d95f388	0.073218405
122	0xbd8efb4c	-0.06981525
123	0x3d25e488	0.040501148
124	0x3d6abb20	0.057307363
125	0x3c94f61e	0.018183764
126	0xbcee5f08	-0.029098049
127	0x3ced2c90	0.028951913
128	0xbda9a1dc	-0.08282825
129	0x3dd33e9b	0.103146754
130	0x3db2a1aa	0.08722241
131	0xbe33fa78	-0.17576015
132	0xbd11fe96	-0.035643183
133	0x3dcbf3cb	0.09958609
134	0x3c8b5587	0.017008556
135	0xbd610c3c	-0.05494331
136	0xbcb5d050	-0.022194058
137	0xbdf0aaec	-0.11751351
138	0x3c8ce968	0.01720114
139	0x3bf2386a	0.007391979
140	0xbdfebfee	-0.124389514
141	0xbd48b898	-0.049004167
142	0x3de30cc0	0.11086416
143	0x3e09f3f3	0.13471965
144	0x3d0bb6f8	0.03411004
145	0xbcc5c8d8	-0.024143621
146	0xbdd6904a	-0.1047674
147	0xbdbea6c0	-0.09309149
148	0x3d98e914	0.07466331
149	0xbd48926d	-0.048967768
150	0xbba2fac8	-0.004973743
151	0x3c415630	0.011800334
152	0xbd139328	-0.03602901
153	0x3ddeb0a0	0.10873532
154	0x3b295b9b	0.0025841955
155	0x3cf8659b	0.030321887
156	0xbd111d93	-0.035428595
157	0x3e18c70e	0.14919683
158	0xbca2325d	-0.019799406
159	0xbdcb1da6	-0.09917764
160	0xbd75e7b7	-0.060035434
161	0xbd98cdae	-0.07461105
162	0x3d8875e0	0.06663108
163	0x3dc81b7a	0.09770866
164	0xbb7acced	-0.0038269118
165	0xbdafaa34	-0.085773855
166	0xbc5a81f8	-0.013336651
167	0xbda5664e	-0.08076154
168	0xbd27647c	-0.040867314
169	0xbd7372b0	-0.059435546
170	0x3d2876c7	0.0411289
171	0xbd108954	-0.035287216
172	0xbba28e65	-0.0049608224
173	0xbb5f225d	-0.0034047582
174	0xbd711712	-0.058859892
175	0xba9c5900	-0.001192838
176	0xbdb4d9cc	-0.08830604
177	0xbe043d22	-0.12913945
178	0x3e254bc3	0.16142182
179	0x3d78cde8	0.060743243
180	0x3e131846	0.14364728
181	0xbd820558	-0.063486755
182	0x3ddf6584	0.109080344
183	0xbcc56c28	-0.024099424
184	0x3db22ece	0.087003335
185	0xbdfb7c4b	-0.122795664
186	0x3db5c0f8	0.088746965
187	0xbd933d89	-0.07189471
188	0xbd342ce2	-0.043988116
189	0xbdd747ff	-0.10511779
190	0x3d94e551	0.07270301
191	0x3b84f98f	0.00405807
192	0x3d4f4676	0.050604306
193	0x3ddfc697	0.1092655
194	0x3d915e4f	0.07098066
195	0x3d29f290	0.04149109
196	0xbd5743d1	-0.05255491
197	0x3db80cab	0.08986791
198	0xbdd85fb4	-0.10565129
199	0x3d718b5c	0.058970794
200	0xbb490d03	-0.0030677922
201	0xbdc833fe	-0.09775542
202	0x3d04e330	0.032443225
203	0x3e05e956	0.13077292
204	0xbd0090e4	-0.03138818
205	0xbdc43fd6	-0.09582488
206	0x3de03392	0.10947336
207	0xbd9c3f72	-0.07629289
208	0xbd812bb5	-0.063071646
209	0xbd005bfc	-0.031337723
210	0xbdd5da9e	-0.104420885
211	0xbc322960	-0.010874122
212	0x3dc94fd5	0.0982968
213	0x3dd053dc	0.10172245
214	0x3c190a39	0.009340816
215	0x3d4d84cc	0.050175473
216	0xbd34e668	-0.044165045
217	0x3dd159c0	0.102221966
218	0xbc8eabd8	-0.017415926
219	0x3ccf385a	0.025295425
220	0xbcefefe1	-0.029289188
221	0xbde6e4a0	-0.112740755
222	0xbd05fef4	-0.032713845
223	0xbdc00870	-0.09376609
224	0xbdf2ff5f	-0.118651144
225	0x3db65376	0.08902638
226	0xbd9e7a35	-0.07738153
227	0xbd90af48	-0.07064682
228	0x3d2e2fcd	0.042526055
229	0x3d9bd2a2	0.076085344
230	0x3da39d90	0.07989037
231	0x3dd1af1a	0.10238476
232	0x3d728828	0.05921188
233	0xbc5dc5c9	-0.013535925
234	0xbd8ec2c0	-0.06970739
235	0xbc964e18	-0.018347785
236	0xbdbd719b	-0.09250184
237	0x3d917988	0.07103258
238	0x3c3c77c8	0.011503167
239	0xbd2b3bdc	-0.041805133
240	0xbd82d7d1	-0.0638882
241	0xbe07b6f8	-0.13253391
242	0x3e2b8e4b	0.16753499
243	0xbd553f1c	-0.05206214
244	0x3cb92632	0.02260122
245	0x3e001931	0.1250961
246	0x3e0aa681	0.13540079
247	0x3bfed4e0	0.0077768415
248	0xbd8b7705	-0.068098105
249	0x3dcc8959	0.099871345
250	0xbdd58553	-0.1042582
251	0x3d18534d	0.037188817
252	0xbce9b89d	-0.028530413
253	0x3d356ea5	0.044294972
254	0x3dfa6b4b	0.12227496
255	0xbd2fd209	-0.042924915

bias f4 [256]
0	0x3d0ed2f1	0.03486914
1	0x3cfb5ebc	0.030684821
2	0xbdc4d2cc	-0.09610519
3	0xbbb32f46	-0.005468282
4	0xbd94e5ee	-0.07270418
5	0xbd5dc488	-0.054142505
6	0xbc8712c3	-0.016488438
7	0x3b8a00ea	0.0042115347
8	0x3c8a17fb	0.016857138
9	0xbccbbad0	-0.024869353
10	0x3decbcbb	0.11559435
11	0x3b93452c	0.00449433
12	0x3ddcf07c	0.10788056
13	0x3d9b7785	0.07591156
14	0xbdf0f7e2	-0.1176603
15	0xbd50d9f9	-0.050989125
16	0x3c88afdd	0.01668542
17	0x3da31c19	0.079643436
18	0xbde44c1a	-0.11147328
19	0x3d53c72e	0.051703624
20	0x3da03eb4	0.0782446
21	0x3dfe54dd	0.1241853
22	0xbdddf4d2	-0.108377114
23	0x3deecb25	0.116598405
24	0x3df573dd	0.1198499
25	0x3d899065	0.06716994
26	0x3d168deb	0.036756437
27	0x3ce1a851	0.02754608
28	0xbc9a1800	-0.018810272
29	0xbca05ef0	-0.01957652
30	0x3d816f72	0.06320085
31	0x3dce1f78	0.10064596
32	0xbd03db80	-0.032191753
33	0xbd5e6ead	-0.054304767
34	0x3d8c4d5c	0.06850693
35	0x3c66fc1d	0.014098194
36	0xbd102819	-0.03519449
37	0x3d1df689	0.038565192
38	0xbd8d132d	-0.06888423
39	0xbe0da7e5	-0.13833578
40	0x3d76e3a8	0.060275704
41	0x3db9c2a8	0.09070331
42	0x3df1d3a0	0.118079424
43	0x3c2c39a9	0.010511794
44	0xbca414b3	-0.020029401
45	0xbc19b661	-0.009381861
46	0x3cb26aaa	0.021779377
47	0x3e00e8b3	0.12588768
48	0xbc08e130	-0.00835447
49	0xbd4c34be	-0.049854986
50	0xbd97fa4b	-0.074207865
51	0x3d84fc0e	0.06493388
52	0xbd87004f	-0.06591856
53	0xbce5df66	-0.028060626
54	0xbdacb6e3	-0.084333204
55	0xbd2d4004	-0.04229738
56	0x3e028420	0.12745714
57	0x3b822594	0.003971765
58	0x3d2ac6cf	0.041693505
59	0xbdf0ae22	-0.11751963
60	0xbd9fb131	-0.077974685
61	0x3d686f9e	0.05674707
62	0xbe00b032	-0.12567213
63	0xbd8ec802	-0.06971742
64	0x3dc30f16	0.09524362
65	0x3e2cc5f1	0.16872384
66	0x3cd1ade3	0.025595611
67	0x3c51d788	0.012807734
68	0x3df760b2	0.1207899
69	0xbe0684b6	-0.13136563
70	0xbdc90b2c	-0.09816584
71	0xbd351d64	-0.044217482
72	0xbd527c58	-0.051388115
73	0xbd0288fb	-0.031868916
74	0x3e0f8554	0.14015704
75	0xbc9d2920	-0.019184649
76	0x3c5d1cc0	0.013495624
77	0x3d188f04	0.037245765
78	0x3c982c8e	0.018575933
79	0xbdb777cc	-0.08958396
80	0xbd32dadb	-0.043665748
81	0x3d9bcd8d	0.07607565
82	0x3cbdf56b	0.023188313
83	0xbd8a3ab8	-0.06749481
84	0xbd7fd22c	-0.062456295
85	0x3cc19f2f	0.023635475
86	0xbda62ba0	-0.081137896
87	0x3db10bba	0.08644815
88	0x3dd61d2a	0.10454781
89	0x3d1ea290	0.03872925
90	0xbd45d8ef	-0.048302587
91	0xbc886ef8	-0.016654477
92	0x3d93d2f7	0.07217973
93	0xbc845c78	-0.016157374
94	0x3d0ea768	0.03482762
95	0xbd7c3c90	-0.061581194
96	0xbd972cfc	-0.07381627
97	0xbdc37b6a	-0.09545024
98	0xb95f2efc	-0.0002128444
99	0x3ca5bd14	0.020231761
100	0x3d127c07	0.035762813
101	0xbdca3600	-0.09873581
102	0x3e183235	0.14862902
103	0xbdf77f2e	-0.120848045
104	0x3e106fa1	0.14105083
105	0x3e00f6f3	0.12594204
106	0xbd473a88	-0.048639804
107	0x3cd6f17c	0.026238196
108	0x3df6a7bc	0.120437115
109	0x3d53da07	0.0517216
110	0xbdc9885b	-0.09840461
111	0x3c335dc7	0.010947651
112	0xbbdf3993	-0.0068122833
113	0xbe03901d	-0.12847944
114	0xbd40262b	-0.0469114
115	0x3dc38a7d	0.09547899
116	0xbd297e24	-0.041380063
117	0xbdaa6f9b	-0.08322068
118	0xbd82ed6a	-0.063929394
119	0x3e25df03	0.16198353
120	0x3de0eb3f	0.1098237
121	0xbdbc3d18	-0.0919134
122	0x3bfcb0c3	0.0077115013
123	0x3d8d1c1b	0.06890126
124	0xbd33af7d	-0.04386853
125	0xbd551be6	-0.05202856
126	0x3d9b6bc5	0.07588915
127	0x3df5caa8	0.12001544
128	0x3d320a4c	0.04346685
129	0x3d7ce000	0.06173706
130	0x3dfd60b5	0.12371961
131	0x3dd71bad	0.105033256
132	0x3d9dfa70	0.07713783
133	0x3cae44cd	0.021273041
134	0x3ce42655	0.02785031
135	0xbdf36da6	-0.11886148
136	0xbda5facf	-0.081044786
137	0xbd2f601c	-0.042816266
138	0xbdbba648	-0.09162575
139	0xbcc69981	-0.024243118
140	0xbd69eb9c	-0.05710946
141	0x3d0f4ea7	0.034987118
142	0x3e0a406b	0.13501136
143	0x3dea5b31	0.11443175
144	0xbd0b86ff	-0.03406429
145	0xbda037c6	-0.07823138
146	0xbe023fab	-0.127196
147	0x3cb540fd	0.022125715
148	0xbc769d2e	-0.015052123
149	0x3ddd1c12	0.107963696
150	0x3dda4576	0.1065778
151	0xbdbfddf6	-0.093685076
152	0x3d6d5ef3	0.05795188
153	0x3dd8eed6	0.10592429
154	0xbd1a82f3	-0.03772254
155	0x3dda2987	0.10652452
156	0x3da4ddff	0.08050155
157	0x3dbbbc2b	0.091667496
158	0xbdf7833e	-0.12085579
159	0xbdc882d7	-0.09790581
160	0xbd81a2d0	-0.06329882
161	0x3ddbbdf7	0.10729592
162	0xbdce2c52	-0.10067047
163	0x3da45da6	0.080256745
164	0x3dd07b9d	0.10179827
165	0x3d3b6874	0.04575391
166	0x3d37af1d	0.044844735
167	0x3db80a73	0.08986368
168	0xbddbbd34	-0.10729447
169	0x3d94b7ba	0.072616056
170	0x3de6757d	0.11252878
171	0x3df722fc	0.120672196
172	0xbe5a2524	-0.2130323
173	0x3da6643c	0.08124587
174	0xbd623a1e	-0.055231206
175	0x3bfa0eb6	0.007631148
176	0x3d639ac7	0.05556753
177	0xbc7d1f34	-0.015449334
178	0x3c866882	0.016407255
179	0xbd8726a2	-0.065991655
180	0x3e071ba2	0.13194135
181	0xbdce1f85	-0.100646056
182	0x3dea7ed9	0.114499755
183	0x3e0d1f7d	0.13781543
184	0xbccf6abe	-0.025319453
185	0x3dd106d1	0.10206378
186	0xbdf26210	-0.1183511
187	0xb884cc16	-6.3322645e-05
188	0x3da66e87	0.0812655
189	0xbe19aa05	-0.15006264
190	0xbb55ad49	-0.0032604507
191	0xbdc7f2bc	-0.09763095
192	0xbda939b9	-0.08262963
193	0x3d7c0fdf	0.061538573
194	0x3dee8b47	0.11647659
195	0x3dfd7a1f	0.123768084
196	0xbdd1169e	-0.10209392
197	0xbddb44c4	-0.107064754
198	0x3d5b2048	0.053497583
199	0xbd30365d	-0.043020595
200	0x3d95a8b3	0.073075674
201	0xbe011c26	-0.12608394
202	0x3b897106	0.0041943816
203	0x3d7a7df8	0.06115529
204	0xbdc137fe	-0.09434508
205	0xbdd63d4a	-0.10460909
206	0xbddb3fde	-0.10705541
207	0x3da8d7c2	0.082442775
208	0x3db993ed	0.09061418
209	0xbd125f12	-0.035735197
210	0xbdc01a30	-0.09379995
211	0xbdb5fad6	-0.08885734
212	0x3d95d332	0.07315673
213	0xbdc7c763	-0.09754827
214	0x3e071071	0.13189866
215	0x3e0aa859	0.13540782
216	0x3d31d1fd	0.04341315
217	0x3e0319ef	0.12802862
218	0xbdbe525f	-0.09293055
219	0x3dc9f97f	0.09862041
220	0x3cfc65b1	0.030810209
221	0xbd4b734a	-0.049670495
222	0x3de75cef	0.112970226
223	0xbded1d1f	-0.1157782
224	0xbd22c228	-0.039735943
225	0x3caa1cc4	0.02076567
226	0xbd2a6340	-0.04159856
227	0x3de1212e	0.10992657
228	0xbda0863f	-0.078381054
229	0xbddfd5d5	-0.10929457
230	0xbd7a584e	-0.06111937
231	0x3d16c42a	0.03680817
232	0xbd020a84	-0.03174831
233	0x3d3fb32d	0.046801735
234	0x3deea0b4	0.116517454
235	0x3df0329b	0.11728402
236	0xbe07cdd2	-0.13262108
237	0xbd8cc2e4	-0.0687311
238	0x3dcd5af1	0.10027111
239	0xbc79911b	-0.01523235
240	0x3dc78409	0.097419806
241	0xbd0c919c	-0.03431855
242	0xbd0f6ac9	-0.035013948
243	0x3d818320	0.06323838
244	0xbd96cb7c	-0.0736303
245	0xbdd3ca0a	-0.1034127
246	0x3d9c5cab	0.076348625
247	0xbdbba5d6	-0.0916249
248	0xbdced4f8	-0.10099214
249	0x3dc65da3	0.096858285
250	0xbd360725	-0.044440407
251	0x3d8b09bb	0.06788965
252	0xbde096fe	-0.109662995
253	0x3d0cf22a	0.034410633
254	0x3e18e601	0.1493149
255	0xbd8d24ba	-0.06891771

weight f4 [256, 256]
0	0x3c9cf7f0	0.019161195
1	0xbcd220a0	-0.025650322
2	0xbd34e9da	-0.04416833
3	0xbb950f20	-0.004548922
4	0xba2b6580	-0.0006538257
5	0x3a1aed80	0.0005910024
6	0xbbf4b090	-0.007467337
7	0xbd22b180	-0.03972006
8	0x3ce19b28	0.027539805
9	0x3c995980	0.018719435
10	0x3c6a30d0	0.014293864
11	0xbcb7ffc8	-0.022460833
12	0x3c318450	0.010834768
13	0xba50b580	-0.0007961616
14	0xbbe60c60	-0.007020518
15	0x3cdc5804	0.026897438
16	0xbd691170	-0.056901395
17	0x3d65801c	0.056030378
18	0x3c8eda4c	0.017438076
19	0x3d76e0d8	0.06027302
20	0xbb074440	-0.0020640045
21	0x3d2e414e	0.04254275
22	0x3cd4b254	0.02596394
23	0xbd651bc8	-0.055934697
24	0xbd3fcb6a	-0.04682485
25	0xbc94b81c	-0.018154196
26	0xbd682ce8	-0.05668345
27	0x3ca8e1b4	0.020615436
28	0xbc75c6d0	-0.015001014
29	0x3c30d2a0	0.010792404
30	0x3d10c854	0.035347298
31	0x3c466e80	0.012111306
32	0x3ca6eb04	0.020375736
33	0x3b88d510	0.0041757897
34	0x3d4b0cde	0.049572818
35	0x3ce09314	0.027413882
36	0xbd179e18	-0.037016004
37	0x3d233570	0.039845884
38	0x3bc22450	0.005924739
39	0x3bf801a0	0.007568553
40	0x3d038368	0.03210774
41	0x3d24edf0	0.040265977
42	0xbd69e732	-0.05710525
43	0x3d561e66	0.052275084
44	0x3c379500	0.011204958
45	0x3d124bbe	0.035716765
46	0x3c965670	0.018351763
47	0xbc32d890	-0.01091589
48	0xbcff0a4c	-0.03113284
49	0xbd51ff92	-0.05126912
50	0x3d5d6c68	0.054058462
51	0xbd7f83e6	-0.062381648
52	0xbd0018a8	-0.031273514
53	0xbd65d738	-0.05611345
54	0xbd70e038	-0.05880758
55	0x3d694f58	0.056960434
56	0xbcfbcc60	-0.030737102
57	0xbc589a80	-0.013220429
58	0x3c0a4170	0.008438453
59	0xbcfd7a84	-0.030942209
60	0xbd5b800e	-0.05358892
61	0xbd4e0354	-0.050296143
62	0x3c5a4bf0	0.013323769
63	0xbd52793a	-0.051385142
64	0x3d617718	0.055045217
65	0x3d02f11c	0.03196822
66	0x3d4afd02	0.049557693
67	0xbd379b70	-0.04482597
68	0xbd1a93b2	-0.03773851
69	0xbd047038	-0.032333583
70	0x3c237448	0.009976454
71	0x3d43d8ce	0.047814183
72	0x3d34e3f0	0.04416269
73	0x3c8f09b0	0.017460674
74	0xbd0c3eb0	-0.03423947
75	0xbd5f27a0	-0.05448115
76	0x3d31dc6c	0.0434231
77	0x3bf21d10	0.0073887184
78	0x3d722a96	0.059122644
79	0x3d5e42ca	0.054262914
80	0xbd4560e0	-0.04818809
81	0xbd6974dc	-0.05699621
82	0x3c24ea90	0.01006569
83	0xbcef7f24	-0.02923543
84	0x3d03c868	0.032173544
85	0x3cb5ab3c	0.022176377
86	0xbd1c205c	-0.038116798
87	0x3d3c7eb6	0.04601928
88	0xbcc8d2b8	-0.024514541
89	0x3cbe6738	0.023242578
90	0xbbaa2e30	-0.0051934943
91	0xbd285558	-0.041097015
92	0xbd6f33b6	-0.058398925
93	0xbc3e6460	-0.011620611
94	0xbd444a6a	-0.04792253
95	0xbd142fa0	-0.03617823
96	0xbd32a93a	-0.04361842
97	0x3d289bbe	0.041164152
98	0x3cfd57f4	0.030925728
99	0x3d05d4c0	0.032673597
100	0xbd26bd36	-0.04070779
101	0x3d14ee1a	0.036359884
102	0xbd700f76	-0.058608495
103	0xbd487434	-0.048938945
104	0xbc560310	-0.013062254
105	0xbca75750	-0.020427376
106	0x3ce5d504	0.028055675
107	0x3cfe431c	0.03103786
108	0xbcdde47c	-0.027086489
109	0xbd7fa886	-0.062416576
110	0x3cd2f1e8	0.025750116
111	0xbb0a4fa0	-0.002110459
112	0xbd04dd32	-0.03243751
113	0xbb4f0ae0	-0.0031592175
114	0x3d78b0fc	0.06071566
115	0xbd1737f6	-0.036918603
116	0xbc98b408	-0.018640533
117	0x3cf6c258	0.030121967
118	0x3c0da788	0.0086459
119	0xbd5e3cb4	-0.05425711
120	0xbd629388	-0.055316478
121	0xbcdd77fc	-0.027034752
122	0xbd59dcdc	-0.053189144
123	0xbce1184c	-0.027477406
124	0x3d4390fa	0.047745682
125	0xbd429e30	-0.04751414
126	0x3d0cf3aa	0.034412064
127	0xbd43ba84	-0.047785297
128	0xbc79b1f0	-0.0152401775
129	0xbd5c2c5a	-0.053753234
130	0x3c0f67f0	0.008752808
131	0x3d1b79ac	0.037957832
132	0x3d56360c	0.052297637
133	0x3c19ea00	0.009394169
134	0xbd329298	-0.043596834
135	0x3d2506ba	0.040289618
136	0x3d7a8b86	0.061168216
137	0x3d1dd748	0.038535386
138	0x3c5c7c78	0.01345741
139	0x3d253f68	0.040343672
140	0xbd34b310	-0.04411608
141	0xbd15a8aa	-0.036537804
142	0xbd500126	-0.050782345
143	0xbd1e62fe	-0.038668625
144	0x3c75cb68	0.015002109
145	0xbd764788	-0.06012681
146	0xbd015b3e	-0.031581156
147	0xbd0c2c8c	-0.03422217
148	0x3d011afe	0.031519882
149	0xbc795f68	-0.0152205005
150	0x3c1b99d0	0.009497121
151	0xbd46fdfc	-0.048582062
152	0xbd63bd8a	-0.05560068
153	0x3c9bd5c4	0.01902283
154	0xbd3d786a	-0.046257414
155	0x3d353660	0.04424131
156	0xbcfafaf4	-0.030637242
157	0x3c201278	0.009770028
158	0xbd346654	-0.0440429
159	0x3d2fbe6a	0.042906202
160	0x3d7a9c24	0.061184064
161	0xbd51b64e	-0.05119925
162	0xbce1e758	-0.027576134
163	0x3c94f78c	0.018184446
164	0xbc65a430	-0.014016196
165	0xbcf396b4	-0.029734947
166	0x3ceb3c38	0.028715238
167	0x3c7fc160	0.015610069
168	0x3d6e1f80	0.05813551
169	0xbd16dbbe	-0.036830656
170	0xbd731554	-0.059346512
171	0x3d68d998	0.05684814
172	0x3d201816	0.03908547
173	0x3ca769cc	0.02043619
174	0xbd7786e8	-0.06043139
175	0x3d25836e	0.040408544
176	0x3b6d18c0	0.0036178082
177	0xbd3a14ce	-0.045429997
178	0x3d0722ae	0.032992058
179	0x3a49cd00	0.0007698089
180	0xbd279af2	-0.04091925
181	0xbd378bc0	-0.04481101
182	0x3d6ac820	0.05731976
183	0xbc0e28d0	-0.008676723
184	0xbd2e2b1a	-0.042521574
185	0x3ceb56f4	0.028727986
186	0x3d2383d6	0.03992065
187	0x3d6fa3b8	0.058505744
188	0xbd7c7cdc	-0.061642513
189	0x3c5f96c0	0.013646781
190	0x3c586890	0.013208523
191	0xbd25c8b4	-0.04047461
192	0x3d59f3de	0.053211085
193	0x3d2ab0d0	0.041672528
194	0xbaff2700	-0.0019466579
195	0xbd156624	-0.036474362
196	0xbd5d38ac	-0.054009125
197	0x3d0c017a	0.034181096
198	0xbd580a24	-0.052744046
199	0x3ca282f0	0.019837826
200	0x3d38a512	0.0450793
201	0xb9e7c900	-0.0004420951
202	0xbc92e6d8	-0.01793234
203	0xbd6a3a8a	-0.057184733
204	0x3c880c60	0.016607463
205	0xbd677d08	-0.056515723
206	0xbd7523ac	-0.059848472
207	0x3cdedff8	0.027206406
208	0xbc45bbd8	-0.012068711
209	0x3d17b04a	0.037033357
210	0xbcb66488	-0.022264734
211	0xbcb98278	-0.02264522
212	0x3c7d49c0	0.015459478
213	0xbba1e2e0	-0.0049403757
214	0xbd281d58	-0.04104361
215	0xbc54bf28	-0.012985028
216	0xbc579f28	-0.013160504
217	0x3d35f846	0.044426225
218	0x3ca201d8	0.01977627
219	0x3cd7d3fc	0.0263462
220	0x3d257eb2	0.04040403
221	0xbce54e0c	-0.027991317
222	0xbd6570c4	-0.056015745
223	0xbc778980	-0.015108466
224	0xbd4af52c	-0.04955022
225	0xbc9c6940	-0.019093156
226	0xbb3ad1a0	-0.0028506294
227	0xbb963480	-0.004583895
228	0x3c2c5428	0.010518111
229	0x3d268510	0.040654242
230	0x3d79dffc	0.061004624
231	0xbd4e47f2	-0.05036158
232	0xbd105a5a	-0.035242416
233	0x3cb0844c	0.021547459
234	0x3ce6ecc0	0.028189063
235	0xbb261520	-0.0025342181
236	0x3d36e990	0.044656336
237	0xbd0568b4	-0.032570556
238	0xbbff7e90	-0.00779707
239	0x3d4ceff4	0.050033525
240	0x3cd8f490	0.026483804
241	0x3d65d12e	0.056107692
242	0x3ce971dc	0.028496675
243	0x3ce7b0fc	0.028282635
244	0xbd37c3a2	-0.044864304
245	0x3d181590	0.03712994
246	0xbcf08a60	-0.029362857
247	0xbd6306aa	-0.055426277
248	0x3ced8408	0.028993621
249	0x3d64d6c2	0.05586887
250	0xbcd4c014	-0.025970496
251	0x3b6eb2c0	0.0036422461
252	0xbd13ed50	-0.03611499
253	0x3cf2100c	0.029548667
254	0xbd3d6674	-0.046240285
255	0xbd2802e2	-0.041018374

bias f4 [256]
0	0xbd0928a4	-0.033486024
1	0x3d9d2c25	0.076744355
2	0x3d1133dc	0.035449848
3	0x3c6b62ce	0.014366819
4	0x3d352c54	0.044231728
5	0x3d8db4f4	0.0691928
6	0xbc6827cd	-0.0141696455
7	0x3d980cc3	0.07424309
8	0x3d3a4f70	0.045485914
9	0x3d1388eb	0.036019247
10	0xbd55d3da	-0.05220399
11	0xbd775774	-0.060386136
12	0xbc92d5d0	-0.01792422
13	0xbc48fa28	-0.012266673
14	0xbce02228	-0.027360037
15	0x3d29bde7	0.04144087
16	0x3d71a458	0.05899462
17	0xbd35a64d	-0.04434805
18	0x3d4ec6d2	0.05048258
19	0x3d4f1bf3	0.050563764
20	0x3cabc37a	0.020967234
21	0x3cafa1a1	0.021439375
22	0x3d44d7c1	0.04805732
23	0x3d36f2ed	0.044665266
24	0x3d133187	0.035935905
25	0xbd6e3df8	-0.058164567
26	0xbd1c4fac	-0.03816192
27	0x3d55a541	0.05215955
28	0x3d829d3a	0.06377645
29	0xbd932a50	-0.07185805
30	0x3d7df21e	0.06199848
31	0x3d5284b9	0.051396105
32	0xbc4fa501	-0.012673617
33	0xbd484580	-0.048894405
34	0xbc35ae68	-0.011088945
35	0xbc8f5397	-0.017495913
36	0xbd1b9ca0	-0.037991166
37	0xbb92b060	-0.004476592
38	0x3d261710	0.040549338
39	0x3c634e08	0.013873585
40	0xbdd8f818	-0.10594195
41	0x3c0b6e9a	0.008510256
42	0x3d61ba6c	0.055109426
43	0xbcb096a4	-0.021556206
44	0x3d1a4f5c	0.03767334
45	0x3d7c67ad	0.06162231
46	0x3cf29be4	0.02961535
47	0x3da51055	0.08059756
48	0x3cf82a87	0.030293716
49	0x3bd30cc3	0.0064407303
50	0x3d707333	0.058703613
51	0x3cdb9f13	0.026809251
52	0x3d776827	0.06040206
53	0x3d55c7ee	0.05219262
54	0x3d0dff24	0.03466715
55	0x3cec006a	0.028808791
56	0x3d9af461	0.07566143
57	0xbd9cef4b	-0.07662829
58	0xbd72c740	-0.05927205
59	0x3bb9c8f5	0.005669708
60	0xbb88e5a3	-0.0041777655
61	0xbd21730b	-0.039416354
62	0x3a04a88c	0.0005060516
63	0xbc962e34	-0.018332578
64	0xbd485740	-0.048911333
65	0xbd56a220	-0.05240071
66	0xbb2e3f4d	-0.0026588023
67	0x3cf989e3	0.030461257
68	0x3d8d5bc6	0.0690227
69	0x3d4a6597	0.04941329
70	0x3d962808	0.07331854
71	0x3d18dbb1	0.03731889
72	0x3c48699d	0.012232211
73	0xbdd54701	-0.104139335
74	0x3c90fb8f	0.017698077
75	0xbc32e7a3	-0.010919484
76	0x3d86b961	0.06578327
77	0xbd6233f6	-0.055225335
78	0x3c6be6f8	0.014398329
79	0xb9d924a0	-0.00041416753
80	0x3d7d98e3	0.061913382
81	0xbc42947c	-0.011876222
82	0x3d277b15	0.040888865
83	0xbcfc5b37	-0.030805213
84	0x3d23226a	0.03982774
85	0xbd4e1728	-0.050315052
86	0x3d076c66	0.03306236
87	0x3d1ab479	0.03776977
88	0x3da2057e	0.07911204
89	0x3d06e62f	0.032934364
90	0x3be5a66c	0.0070083644
91	0x3d553492	0.052052088
92	0x3c312bde	0.010813681
93	0x3cdb2ff2	0.02675626
94	0xbd3ceccd	-0.04612427
95	0x3d2a95b2	0.041646667
96	0x3d61f3cf	0.055164155
97	0xbc4607a0	-0.012086779
98	0xbd7b3892	-0.061333247
99	0xbc8c2f24	-0.017112322
100	0xbd21f806	-0.039543174
101	0x3baa2172	0.0051919753
102	0x3be18ba0	0.0068830997
103	0x3d27a705	0.040930767
104	0x3d1ac3aa	0.037784256
105	0x3d3fd65c	0.04683529
106	0xbd5e0ca6	-0.05421128
107	0x3d85dadd	0.065358855
108	0x3d901416	0.07035081
109	0xbd72b97c	-0.059258923
110	0xbcdf0cab	-0.02722772
111	0x3d60d589	0.054891143
112	0x3b6f425b	0.0036508057
113	0x3beff8a5	0.007323342
114	0x3d70cafe	0.05878734
115	0x3d2097ce	0.039207272
116	0x3d5c288d	0.05374961
117	0x3c9af20c	0.018914245
118	0x3d66c565	0.056340594
119	0x3c9eaea7	0.01937039
120	0x3c97b86e	0.01852056
121	0xbd77ed5c	-0.060529098
122	0x3d2eefed	0.04270928
123	0x3ca650aa	0.020302135
124	0x3cfada6c	0.03062173
125	0x3c3b1729	0.011419096
126	0xbb2857ea	-0.0025687166
127	0xbbbfc398	-0.005852174
128	0x3c58c5e8	0.013230778
129	0xbb17f720	-0.002318807
130	0x3cd43133	0.025902366
131	0xbc01d5fd	-0.007924554
132	0x3d356cb2	0.044293113
133	0x3d7347a0	0.05939448
134	0xbc7a7199	-0.015285873
135	0x3d579ca0	0.052639604
136	0x3d50dc2d	0.050991226
137	0xbc1810e9	-0.009281375
138	0xba7c6265	-0.0009627699
139	0xbbaa62db	-0.005199773
140	0x3cdcb90e	0.02694371
141	0x3cfabceb	0.030607661
142	0xbc31af40	-0.0108450055
143	0xbd4950fd	-0.049149502
144	0x3d1d7db7	0.03844997
145	0x3d9d2951	0.07673896
146	0x3d4b70df	0.04966819
147	0x3cbb76f4	0.02288387
148	0xbd500594	-0.05078657
149	0xbd5975cb	-0.05309085
150	0x3d57bac2	0.05266834
151	0x3c85285f	0.016254602
152	0xbc91e2ba	-0.017808307
153	0xbd6bf019	-0.05760202
154	0xbd4d17ca	-0.050071515
155	0x3aba0e00	0.0014194846
156	0x3d0cb658	0.034353584
157	0xbc0e3af2	-0.008681046
158	0x3d5ab377	0.053393807
159	0xbbad3a6a	-0.0052865045
160	0x3d9fa78c	0.07795629
161	0xbd1fa867	-0.03897896
162	0x3d311763	0.043235194
163	0x3d609a94	0.054834917
164	0x3ca97457	0.020685358
165	0xbcbe5c48	-0.023237363
166	0x3cd91a2e	0.026501741
167	0x3d083821	0.033256654
168	0x3d4cc427	0.049991753
169	0x3d3b3552	0.045705147
170	0x3d467e6b	0.048460405
171	0x3beab8e5	0.0071631544
172	0x3d0bc85a	0.034126617
173	0x3d6e5058	0.05818209
174	0x3d507e79	0.050901864
175	0x3d56b718	0.052420706
176	0xbd478f5c	-0.048720703
177	0xbd457665	-0.048208613
178	0xbbbbf7d1	-0.005736329
179	0x3d85e96b	0.065386616
180	0x3d4a0fe2	0.049331553
181	0x3d2a5129	0.041581307
182	0xbdfc761e	-0.123272166
183	0xbda56888	-0.080765784
184	0xbd2bd6d6	-0.04195293
185	0xbd1cdee8	-0.038298517
186	0x3c0306da	0.007997239
187	0xbcb3cdc8	-0.02194871
188	0x3d7bbe51	0.061460797
189	0xbbfa38de	-0.0076361736
190	0xb93d73fc	-0.00018067652
191	0x3d4957f5	0.049156148
192	0x3b94e246	0.0045435755
193	0x3c909876	0.017650824
194	0xbd963dd7	-0.07336014
195	0xbd3f10d7	-0.04664692
196	0x3ced346d	0.028955663
197	0xbc182202	-0.009285452
198	0x3c266d6f	0.010157927
199	0x3d1a3b9c	0.037654504
200	0xbd8dcaa0	-0.06923413
201	0x3cf4f1d2	0.029900465
202	0x3d625857	0.05526003
203	0x3d51100a	0.051040687
204	0xbc061017	-0.008182547
205	0xbc09ec47	-0.008418149
206	0xbd9014b8	-0.07035202
207	0x3cda3f80	0.026641607
208	0x3cbde915	0.023182431
209	0xbd1509d2	-0.03638632
210	0x3c207e15	0.009795685
211	0xbc47fa4f	-0.012205674
212	0xbb91bc70	-0.0044475123
213	0xbd3792fe	-0.044817917
214	0xbd2abfae	-0.041686706
215	0x3da04c4d	0.07827053
216	0xbd1bcc7c	-0.03803681
217	0xbaa1779b	-0.001231897
218	0x3cd22ecd	0.025657082
219	0x3d802b9f	0.0625832
220	0xbd3e57a8	-0.046470314
221	0x3c975db3	0.018477296
222	0x3d33ca36	0.043894015
223	0x3d37e9b4	0.04490061
224	0xbd18bc13	-0.037288737
225	0x3d7f6164	0.06234874
226	0x3c9c20ef	0.019058673
227	0x3d473319	0.048632715
228	0x3d2cfa70	0.042231023
229	0x3d3cac5d	0.046062816
230	0x3d60b5a9	0.054860745
231	0xbd211aee	-0.039332323
232	0x3d2247f8	0.039619416
233	0x3cf20d39	0.02954732
234	0x3d9462d0	0.072454095
235	0x3c8be757	0.017078085
236	0xbcc8521e	-0.024453219
237	0xbdd7a5d8	-0.10529679
238	0xbd451590	-0.048116267
239	0x3d31b3e8	0.043384463
240	0x3d94fd51	0.07274879
241	0x3c3a1580	0.011357665
242	0xbc40939a	-0.011753941
243	0x3d296b36	0.04136201
244	0xbb1bed1c	-0.0023792451
245	0xbd1741ce	-0.03692799
246	0x3cf34bbe	0.029699203
247	0xbd04cd4e	-0.032422356
248	0x3b8327f0	0.0040025637
249	0xbd81de0c	-0.0634118
250	0xbd287d1a	-0.04113493
251	0xbb32ea3e	-0.0027300264
252	0xbcd2eed7	-0.025748653
253	0x3c51d299	0.012806558
254	0xbcee8ff4	-0.029121377
255	0x3b805bc5	0.00391719

weight f4 [1, 256]
0	0x3d223356	0.03959974
1	0xbda59a80	-0.08086109
2	0x3d89945c	0.067177504
3	0xbd8b4a04	-0.06801227
4	0xbd56887b	-0.05237625
5	0xbd880d94	-0.06643215
6	0x3bf4c12e	0.007469318
7	0xbcde4788	-0.027133718
8	0x3d8ba3c6	0.06818347
9	0xbd9b5b30	-0.07585752
10	0x3d3b5332	0.045733638
11	0xbd0b9d54	-0.034085587
12	0x3d3fb9fa	0.04680822
13	0xbd330b9a	-0.043712236
14	0x3d382b32	0.04496307
15	0xbd393e02	-0.04522515
16	0xbd1f341e	-0.038868062
17	0xbddf2fe9	-0.1089781
18	0x3d6bce62	0.05756987
19	0x3c99ee06	0.018790256
20	0x3ca581a0	0.020203412
21	0x3d6faff1	0.0585174
22	0xbda3a62e	-0.07990681
23	0x3d0f0b68	0.034922987
24	0xbd81f408	-0.063453734
25	0xb8d54c00	-0.000101707876
26	0xbd514406	-0.051090263
27	0xbd8fbca7	-0.070184045
28	0xbcf55343	-0.029946929
29	0x3e2e5a8f	0.17026733
30	0xbcea67d4	-0.028613962
31	0x3d1f3a32	0.03887386
32	0xbda683d7	-0.08130615
33	0x3ca8c0db	0.020599773
34	0xbd6a881a	-0.057258703
35	0x3d1be3ed	0.038059164
36	0x3d947157	0.0724818
37	0xbddb2581	-0.10700513
38	0x3cd55cf2	0.026045296
39	0x3e4078f3	0.18796138
40	0x3e255520	0.16145754
41	0x3d021697	0.031759825
42	0x3d0d5679	0.034506295
43	0xbda64454	-0.08118501
44	0x3a820939	0.0009920961
45	0xbd3cbd60	-0.04607904
46	0x3cbd2b15	0.023091832
47	0xbd68b553	-0.05681355
48	0x3cc8ef28	0.024528101
49	0x3d5b2269	0.053499613
50	0x3e508752	0.2036412
51	0xbcd814a0	-0.026377022
52	0xbd8b7505	-0.06809429
53	0x3cac2082	0.021011595
54	0x3d1a8534	0.03772469
55	0x3d0bc488	0.034122974
56	0xbcb9d5bf	-0.02268493
57	0x3e0186eb	0.12649123
58	0xbd4883de	-0.048953883
59	0xbd6eec56	-0.058330856
60	0x3d943749	0.07237107
61	0x3e313474	0.17305166
62	0xbdac0cf9	-0.08400912
63	0x3c998c04	0.018743522
64	0x3d09a770	0.033606946
65	0x3e4ece3a	0.20195857
66	0xbdaa5b76	-0.08318226
67	0x3cde41c2	0.027130965
68	0xbd6005d8	-0.054693073
69	0x3d8a3c8c	0.0674983
70	0xbd2208b4	-0.03955908
71	0x3d5d5e3a	0.05404494
72	0x3cd2a0cf	0.025711445
73	0x3e474039	0.19458093
74	0x3d4550fa	0.04817293
75	0xbe0682f8	-0.13135898
76	0xbd1ecd4b	-0.03877
77	0xbbf1ec30	-0.007382892
78	0xbd8b41f5	-0.0679969
79	0x3d2f1597	0.0427452
80	0x3cfc7786	0.030818712
81	0xbd6b0c3c	-0.057384714
82	0x3d49db0e	0.049281172
83	0x3c279dc9	0.01023049
84	0x3d396390	0.045260966
85	0xbd38a104	-0.04507543
86	0x3d75f411	0.060047213
87	0x3d646ac7	0.055765893
88	0xbde29f74	-0.110655695
89	0xbd0d9fa9	-0.034576092
90	0x3cc9c09d	0.024627978
91	0xbd2d9b84	-0.04238464
92	0xbd66f595	-0.05638655
93	0xbd2f6385	-0.04281952
94	0xbda2217b	-0.07916542
95	0x3d10470e	0.035224013
96	0x3d40d55d	0.04707848
97	0x3d0c7ee2	0.034300692
98	0xbdd985e9	-0.106212445
99	0xbd1f6ceb	-0.03892223
100	0xbcd6fd4c	-0.026243828
101	0x3d898834	0.06715432
102	0xbd63b3c2	-0.055591352
103	0xbd984ceb	-0.07436546
104	0x3d60963c	0.054830775
105	0x3d8ee5ae	0.06977402
106	0xbd10eba5	-0.035380978
107	0xbd95908b	-0.0730296
108	0xbd19777b	-0.03746746
109	0x3ce2125c	0.027596645
110	0xbda43fd4	-0.08019987
111	0xbd033ab3	-0.0320384
112	0x3cec85db	0.028872421
113	0xbd7703c4	-0.060306326
114	0xbcf1f46a	-0.029535491
115	0x3c853793	0.016261851
116	0x3d313ff2	0.043273874
117	0xbd64fed4	-0.055907086
118	0x3d093d90	0.033505976
119	0x3d658c3d	0.056041945
120	0xbd652067	-0.055939104
121	0x3ceb2d38	0.028708085
122	0xbd68d005	-0.056839008
123	0x3c928850	0.017887264
124	0xbcf31a33	-0.029675579
125	0xbce5115d	-0.027962381
126	0x3d399553	0.045308422
127	0xbde8a868	-0.11360246
128	0x3cdcee0f	0.026968984
129	0xbd391128	-0.045182377
130	0xbd2a69c8	-0.041604787
131	0x3d7dec4a	0.06199292
132	0xbca40e69	-0.020026403
133	0xbd33dd90	-0.04391247
134	0xbcff0682	-0.031131033
135	0xbd19b60b	-0.037527125
136	0x3ca54fa8	0.020179585
137	0xbd86505f	-0.06558298
138	0xbe1171d4	-0.14203578
139	0xbd837c9d	-0.064202525
140	0xbda7371c	-0.08164808
141	0xbd47509f	-0.04866087
142	0xbbd9c790	-0.006646104
143	0xbd989aaa	-0.07451375
144	0xbcaa852b	-0.020815453
145	0xbcd89eff	-0.026443003
146	0xbd9f8770	-0.077895045
147	0x3c9bbd8a	0.019011278
148	0x3d4f5f88	0.050628215
149	0x3dba3e22	0.09093882
150	0x3ca48182	0.020081285
151	0xbd439fb4	-0.047759727
152	0xbce24768	-0.02762194
153	0xbda29415	-0.07938401
154	0xbd88df16	-0.06683175
155	0xbd9ffaeb	-0.07811531
156	0x3cf33580	0.029688597
157	0x3bcbe30a	0.0062221335
158	0x3d1a72e7	0.037707236
159	0xbca39f65	-0.019973466
160	0xbd49a87c	-0.049232945
161	0xbdd04529	-0.10169441
162	0xbd796038	-0.060882777
163	0x3cc291ac	0.023751102
164	0x3cfb01df	0.03064054
165	0x3bf72970	0.0075427815
166	0x3d9dc8d2	0.07704319
167	0xbdab50ce	-0.08365022
168	0x3d76a034	0.060211375
169	0x3d909e60	0.07061458
170	0x3e182a96	0.14859995
171	0xbd04ed71	-0.032453004
172	0x3cfc0ee5	0.030768821
173	0x3dc7937b	0.097449265
174	0xbd48c3f6	-0.049015008
175	0x3cacd1fd	0.021096224
176	0x3bf21367	0.007387567
177	0x3d4605a8	0.048345238
178	0x3da67f16	0.081297085
179	0xbcd35e9e	-0.025801953
180	0x3d8da8b3	0.069169424
181	0x3d194b02	0.03742505
182	0x3e134fc2	0.14385894
183	0x3dd7085e	0.10499643
184	0xbb2c2320	-0.0026266053
185	0x3d62078e	0.055182986
186	0xbe12d168	-0.14337695
187	0x3d21c174	0.039491132
188	0xbd96dd22	-0.073663965
189	0xbd4e01d9	-0.05029473
190	0x3d2bd3e3	0.041950118
191	0x3d4f3b7a	0.05059383
192	0xbd68bfa8	-0.056823403
193	0x3d9c7d35	0.07641069
194	0x3deb32a3	0.114842676
195	0x3e0e4ab4	0.13895684
196	0x3d70a84c	0.05875425
197	0x3d7a85b4	0.061162665
198	0xbd875516	-0.06608026
199	0x3d5c2e6a	0.0537552
200	0x3e43f652	0.19136932
201	0xbd022f4b	-0.031783383
202	0xbd694aa7	-0.05695596
203	0xbcc1aedf	-0.023642955
204	0xbcd888bf	-0.026432393
205	0x3c568296	0.013092658
206	0x3e44a178	0.1920222
207	0x3da0cd15	0.07851616
208	0xbd6840cf	-0.05670243
209	0xbda1580e	-0.07878123
210	0xbd61a70d	-0.055090953
211	0x3d8a7941	0.067614086
212	0x3d277a60	0.04088819
213	0x3d2cd1fe	0.04219245
214	0x3c91eef8	0.017814144
215	0xbd928d47	-0.07155853
216	0xbd8bb1ca	-0.0682102
217	0x3cf78832	0.03021631
218	0x3cfc6b2d	0.030812824
219	0x3d1b65e7	0.03793898
220	0xbd09444e	-0.033512406
221	0x3d64a36d	0.055819917
222	0x3d14aa3c	0.03629516
223	0x3d96ce9a	0.07363625
224	0xbded4969	-0.115862675
225	0x3d393972	0.0452208
226	0x3d835eb7	0.0641455
227	0x3ca57cd2	0.02020112
228	0xbd9c31d6	-0.07626693
229	0xbd7d969f	-0.06191122
230	0xbcadcfe4	-0.021217294
231	0xbd4ae212	-0.049532004
232	0xbd87d5f7	-0.066326074
233	0x3d5c20d7	0.053742256
234	0xbd29022b	-0.041261833
235	0x3d35319d	0.044236768
236	0xbdbe6b4b	-0.09297808
237	0x3e37fd3b	0.17967694
238	0x3d934560	0.071909666
239	0x3ca37bfa	0.019956578
240	0xbde923bb	-0.11383768
241	0xbb226e80	-0.0024785101
242	0x3cf19f5b	0.029494932
243	0xbd55ccd9	-0.05219731
244	0x3dc1fc53	0.09471955
245	0xbcdb6ce8	-0.026785329
246	0x3cdd9381	0.027047874
247	0xbc8fda50	-0.017560154
248	0x3d954304	0.07288173
249	0x3e40342f	0.18769906
250	0xbd39d73c	-0.04537128
251	0x3d62562f	0.055257972
252	0x3e4057f8	0.18783557
253	0x3ca52506	0.020159256
254	0xbd13de55	-0.036100704
255	0xbdf15650	-0.11784041
