saved_model_states/savedmodel_neighbors.pkl (torch, 627426 bytes, 25 tensors)

weight f4 [64, 3]
000000 6b 9f 2b be 7c d1 da 3e d9 70 13 3f f9 45 ee be
       -0.16760032 0.4273795 0.57594067 -0.4653776
000010 5d b0 28 3e 8f 29 10 3f 2a d7 be 3d ac 6c ea 3b
       0.16473527 0.56313413 0.09318383 0.007154068
000020 52 93 dd be 5f 69 10 3f 64 6d e7 3e 56 5b 00 3f
       -0.4327646 0.56410784 0.45200646 0.5013937
000030 a8 ea aa 3e a8 0b 43 be 55 00 de be 7e 2f ac 3e
       0.33382154 -0.19047415 -0.43359628 0.33629984
000040 6a 0d f7 3e d3 f0 0f bf d9 8b 05 bf 99 6e 9f 3e
       0.48252422 -0.56226844 -0.52166516 0.31139067
000050 71 13 13 3f 7b 52 96 3e 65 51 7e 3e af a4 b4 3e
       0.5745154 0.29359803 0.24835737 0.35281894
000060 41 5e c9 be 24 2f 97 be c9 07 30 3e 23 c1 04 bf
       -0.39329723 -0.29528153 0.1719047 -0.51857203
000070 82 7c d6 3e e8 90 03 3f 8e 76 2e 3e cf ad b6 3e
       0.41891867 0.51392984 0.17037413 0.3567948
000080 bf 51 56 be 71 aa d5 be 1e f7 9a be f4 e6 12 3f
       -0.20929621 -0.417316 -0.3026666 0.57383657
000090 75 ca de be 7d 28 e7 3d c9 72 a4 be e8 dd 63 3e
       -0.43513837 0.112870194 -0.32118824 0.2225262
0000a0 f0 07 ee be d2 4e 0a 3f b6 f7 e4 be 4e d7 fd 3e
       -0.4649043 0.5402652 -0.44720238 0.49578327
0000b0 47 ad 1a bc 27 75 8f 3e 28 dc fa bc b9 a9 97 be
       -0.009440727 0.28019068 -0.030622557 -0.29621676
0000c0 81 6a 18 3d 7a f0 a7 3e f6 26 d2 3e d3 34 91 3e
       0.037210945 0.32800657 0.4104535 0.28360614
0000d0 a1 e8 06 bf 92 6f ff 3e 5d e2 d2 be 7b 5c dc 3e
       -0.52698714 0.4988981 -0.41188326 0.43039307
0000e0 ba 05 c9 be 54 eb ea bd 27 e9 0f be e4 f1 2d be
       -0.39262182 -0.114706665 -0.14053784 -0.16986805
0000f0 01 e7 23 3c 24 20 dd be 25 a6 04 bf 0f 8e 82 3e
       0.010003806 -0.43188584 -0.51816016 0.25499007
000100 f1 df 2b 3e 03 56 96 3e 67 fa ff 3e b8 d3 83 be
       0.16784646 0.29362497 0.4999573 -0.25747466
000110 25 f3 8d bd f3 69 52 bd 65 40 1c be fd 55 13 bf
       -0.06931142 -0.051370572 -0.1525894 -0.5755308
000120 8e 71 ea be 54 2b df 3e 43 0c 80 be 89 ba 07 3f
       -0.4578976 0.43587744 -0.25009355 0.53019005
000130 88 02 d2 be 3c 74 63 be 75 8d ea be 6b 3d 9e bd
       -0.41017556 -0.22212309 -0.45811048 -0.07726558
000140 95 22 47 be 74 12 b9 be 81 36 fb be 55 a0 06 bf
       -0.19446786 -0.3614689 -0.4906502 -0.525884
000150 a3 0a 0b 3d 67 e4 06 3d 3a 83 e1 3e 58 02 07 bf
       0.03394569 0.032932665 0.4404543 -0.5273795
000160 4a d4 9f be fd 0d 09 3e 94 49 c3 be c4 96 a0 3d
       -0.3121665 0.13384242 -0.38142073 0.07841256
000170 9c 8d e0 bc 1c 5f 86 3d 32 72 06 bf af b8 24 3e
       -0.027411275 0.065611094 -0.52518 0.16086076
000180 f4 98 ff be df 86 09 3f bb db bb bd 3c f7 8d be
       -0.4992138 0.5372142 -0.0917277 -0.27727687
000190 83 ed 87 bd 16 ae ea 3e 8b d5 d9 3d 7c c3 a2 3e
       -0.06637099 0.45835942 0.10636433 0.31789768
0001a0 80 d9 94 3d 73 a0 07 3f 36 ba 06 bf f3 3a bb 3d
       0.07268047 0.529792 -0.52627885 0.09142103
0001b0 c8 19 0a 3f 35 25 83 bc 11 11 ac be 83 47 a4 be
       0.5394559 -0.016008953 -0.3360677 -0.3208581
0001c0 d8 65 eb be 84 4c ed be e6 8c d8 3e 8f b7 8e bd
       -0.45976138 -0.4634744 0.42294997 -0.06968605
0001d0 d4 b0 98 3e 73 b5 9f 3e ee 03 c5 be a0 e5 0c be
       0.2982241 0.31193122 -0.3847956 -0.1375947
0001e0 d8 d9 80 be 42 ea 82 3e e1 d1 2c 3e ba a7 0b 3e
       -0.25166202 0.2556935 0.16876937 0.13638201
0001f0 58 10 ed be 92 c4 0e 3e cb 0a 6b 3d 8e f3 38 bd
       -0.46301532 0.13942173 0.05738334 -0.045154147
000200 e1 2c 0c bf 8e 82 c0 be d9 b5 b0 bd 17 f1 0f bd
       -0.5475598 -0.37599605 -0.08628435 -0.03514203
000210 9d 61 28 3c d1 93 f1 be 9e 45 cf be 7f e4 8e be
       0.010277179 -0.47183087 -0.404828 -0.27908704
000220 20 1f cd bd b5 b0 1c be 6a f2 56 be d4 ee d5 3e
       -0.10015702 -0.15301783 -0.20990911 0.41783774
000230 dc 7c 96 3e df 1f bd 3d 7d 2f af 3e e4 8d 94 be
       0.29392135 0.092345946 0.34215918 -0.29014504
000240 8b 4e 2c 3e ab 0c 2c 3e e0 d8 91 3d 6c 39 f5 be
       0.16826837 0.16801707 0.07121444 -0.47895372
000250 1a 0d a9 be b5 cb 41 3d 65 62 fd 3e ff d9 0e be
       -0.33017808 0.04731341 0.49489132 -0.13950346
000260 13 ab 24 be 2b d1 09 3e f2 5b 3b 3a 93 79 b7 be
       -0.16080885 0.13458697 0.0007147185 -0.3583494
000270 a3 97 43 3e b4 fb 02 3f cd 7c 3e bc d6 00 03 bf
       0.19100814 0.5116532 -0.0116264345 -0.5117315
000280 aa 14 08 bf 77 c5 9a be a5 d3 5a be 64 04 7b 3e
       -0.5315653 -0.3022878 -0.21369798 0.24513394
000290 ed 74 b5 be e7 ff 8d be 02 c9 c0 be 5b 5c 2c 3d
       -0.3544077 -0.277343 -0.37653357 0.042080265
0002a0 cb ef f1 3e 1b 30 87 3c ca f8 08 3e 5d 25 07 bf
       0.4725326 0.01650243 0.13376155 -0.52791387
0002b0 47 9c 70 3e 78 6a e5 be 95 cc bf be 50 20 9c 3e
       0.23497115 -0.44807792 -0.3746077 0.30493402
0002c0 dc 6f b3 3e 4e 81 92 be 7a 1f a5 be 7d 8e f0 ba
       0.3504628 -0.28614277 -0.32250577 -0.0018353012
0002d0 f0 6d 38 3e eb 10 e8 be 80 71 a0 be 48 7c 03 3f
       0.18010688 -0.45325407 -0.31336594 0.51361513
0002e0 c0 d2 90 be 77 25 06 3f cb 92 fe be 89 b3 89 be
       -0.2828579 0.52400917 -0.4972137 -0.26894787
0002f0 7c 2d 32 3d 6c 8a 41 bd 61 f6 5c be cf a1 f6 3e
       0.04350041 -0.04725115 -0.21578361 0.48170325

bias f4 [64]
000000 42 5b 38 bd 6a a7 09 3c 1f 58 b4 be 4c 2a 5e 3e
       -0.045008905 0.008401731 -0.3522348 0.21695822
000010 99 11 b3 3e a3 17 7f 3e 42 8b fe 3b 64 b7 e5 be
       0.34974363 0.2491136 0.0077680657 -0.44866478
000020 b3 a5 0b 3f 42 4b a7 bd 70 b1 5e 3d fb 7c ff be
       0.5454971 -0.08168651 0.054368436 -0.4990004
000030 43 3b 83 be 63 c4 20 be 82 a9 ff be d8 66 d9 3e
       -0.2563115 -0.15699916 -0.49934012 0.42461276
000040 a5 41 cc be 6d b1 a9 3e d6 e1 3b be 00 2c f7 bd
       -0.39893833 0.33143178 -0.18347868 -0.12068939
000050 01 35 05 3f 60 d7 86 bd 2d 9c b5 be bb 1b da 3d
       0.52034 -0.06584048 -0.35470715 0.106498204
000060 f4 ac ad 3e 35 49 a9 3e 75 52 9d 3e 3f 6d 62 bd
       0.33921015 0.33063665 0.30726972 -0.055279966
000070 c5 ca 0a 3f 3c 9a d6 be db 77 4a be e4 53 92 3c
       0.5421565 -0.41914546 -0.19772284 0.017862268
000080 a8 d5 b2 3d 11 c3 01 bf d0 70 00 3d 70 3d bc 3e
       0.08732158 -0.5068827 0.031357586 0.36765623
000090 bd da 23 be 0f 51 de 3d 0c 01 ef 3e 07 4a e7 3e
       -0.16001411 0.108553044 0.46680486 0.45173666
0000a0 9b 75 db 3e d4 6d ba 3e e9 e0 95 be 5f 75 03 bf
       0.42863163 0.36411917 -0.29273155 -0.5135097
0000b0 88 26 ee 3e e8 f1 44 3d 0b da be 3e a1 c5 0f be
       0.46513772 0.048082262 0.3727573 -0.14040233
0000c0 27 b8 07 3f 88 36 bd 3c a3 66 85 3e 0c 98 1f 3d
       0.5301537 0.023097292 0.26054868 0.038963363
0000d0 7e 29 08 3f 46 a1 9d be 0a c5 a5 3e ea 89 61 3d
       0.5318831 -0.30787104 0.3237689 0.055063166
0000e0 66 a5 ba be f2 09 8a 3e ed 6d 0f 3f a6 fe ca be
       -0.36454314 0.26960713 0.5602711 -0.39647406
0000f0 7d 35 0e 3f 2d 7b 1f be 83 ad 15 be 2a 3a cd be
       0.55550367 -0.15574332 -0.1461697 -0.40083438

weight f4 [64, 64]
000000 93 bf e5 bd 37 4d b5 bc d8 06 8f bd 59 de 9e bd
       -0.112181805 -0.022131545 -0.06983727 -0.07757253
000010 cf c5 23 3d ba 9c d1 bd 59 3f 54 3d 5b 4f 15 bc
       0.039983567 -0.10234971 0.051818226 -0.009113158
000020 16 c0 29 3c e2 26 97 3d a7 b6 cb 3c 5c 40 05 3d
       0.010360738 0.07380463 0.024867369 0.03253208
000030 5e 7d a9 3d c2 24 1d bd 18 00 20 3d 71 60 1f 3d
       0.08275865 -0.038365133 0.03906259 0.038910333
000040 3d 72 ec 3d 4b 5c af 3d f6 d7 8a bd 38 62 e2 3d
       0.11545227 0.08562525 -0.067794725 0.1105389
000050 78 53 45 bd 4c 71 b4 3d fb 45 e4 3d 09 63 ce bd
       -0.048175305 0.08810672 0.1114616 -0.10077483
000060 70 79 ef bd 79 51 3c 3d 6c a3 5d bd a6 44 e9 bd
       -0.11693084 0.045976136 -0.05411093 -0.11390047
000070 e8 93 7b bb 54 d5 15 bd c0 1a a7 3b e7 ce af bd
       -0.003838772 -0.0365804 0.0050996244 -0.08584385
000080 80 f4 a5 bd a4 27 5d bd 0e f1 17 bd 62 91 fa bd
       -0.08103275 -0.053992882 -0.037095122 -0.12234761
000090 7f 92 e2 3d 60 d1 b6 bb f0 a3 b5 bc 15 1f 88 3d
       0.11063098 -0.0055791587 -0.022172898 0.066465534
0000a0 19 84 54 bc e2 98 fd bd 70 28 ed bc 10 37 d8 3c
       -0.012970948 -0.12382676 -0.028949946 0.026393443
0000b0 e8 1b 86 bb 78 4c 76 3d 4d 9b e3 3d c8 12 9a 3d
       -0.004092682 0.06013152 0.11113606 0.075231135
0000c0 49 c7 1e 3d 78 e1 18 3d 88 c0 68 3d f3 d4 6a bd
       0.038764272 0.0373244 0.056824237 -0.05733199
0000d0 3b 3e d8 bd 14 f0 35 3d fc 9e 1c 3d ea e5 85 3d
       -0.105587445 0.04441841 0.038237557 0.06537993
0000e0 fd f6 92 bd f0 fb bd 3c c1 84 52 3d dc 4f 7e bd
       -0.071760155 0.023191422 0.051396135 -0.06208788
0000f0 1d 47 f6 3c c0 d1 cb 3d 30 92 15 bd 75 cf 14 3d
       0.030063206 0.09952116 -0.03651637 0.03633066
000100 19 f1 0e 3d a0 73 a8 3d 16 47 9f bd 36 95 de bd
       0.034897897 0.08225179 -0.077772304 -0.108683035
000110 be 87 eb 3d 15 fc 40 3d 67 c0 d4 bd b1 f3 ba 3b
       0.115005 0.047115404 -0.1038826 0.00570532
000120 84 96 8f bd a6 8e 2d 3d c4 7e 6e bd d4 87 86 3d
       -0.070111305 0.04237237 -0.058226362 0.06568876
000130 3c 63 c9 bd 45 08 b6 bd b7 e8 7c bd 64 4b c4 3b
       -0.098333806 -0.08888296 -0.06174537 0.0059904326
000140 be 9d 91 bd 1f 61 73 3d 4b ca 43 3d ae 76 e8 bd
       -0.07110165 0.059418794 0.047800343 -0.11350761
000150 1e 61 6a 3d d8 76 48 bb d9 72 00 3e f6 6a 31 bd
       0.057221524 -0.0030588415 0.12543811 -0.043314897
000160 b9 10 d1 3d a4 38 21 3d 80 a9 8e 3c 80 63 3b bd
       0.10208268 0.039360657 0.017414808 -0.045749187
000170 16 90 e6 3c 64 8d 9b 3d 58 22 67 3d 86 a1 82 bd
       0.028144877 0.075953275 0.056429237 -0.063784644
000180 3d b3 06 3e b8 9e 2f bd 58 d7 c5 3c 55 91 b4 3d
       0.13154311 -0.042875975 0.024150535 0.088167824
000190 f1 60 97 3d 4e 1c 88 bd d6 98 b2 bd df 92 cf 3c
       0.07391537 -0.06646024 -0.087205574 0.025338588
0001a0 63 de 02 3c fd a3 e1 3d b4 25 c9 bd 52 04 a0 bd
       0.007987591 0.110176064 -0.098216444 -0.07813324
0001b0 c5 d5 02 3d 10 80 22 3d 92 1e 4e bc d6 d5 f8 bc
       0.031942148 0.03967291 -0.012580531 -0.030375402
0001c0 da 16 d4 3b 00 ff 5e bb 78 ce ea 3c cc fc dc bd
       0.0064724507 -0.0034026504 0.028662905 -0.10790405
0001d0 18 e3 e9 3d 80 5c 72 bd 44 de bb 3d 50 df 8b 3c
       0.11420268 -0.059170246 0.09173253 0.017074257
0001e0 6c c8 3d bd df 0d 7d bd 66 22 4a 3d 68 c2 98 bc
       -0.046333715 -0.061780807 0.04934921 -0.018647388
0001f0 c1 af 17 bd 8b eb 95 3c 70 06 83 3c aa ca 9d bc
       -0.037032846 0.018300792 0.01599428 -0.019261677
000200 eb 9d 16 3e 98 24 2c bd 00 fc ce 3d 1e 73 21 3d
       0.14708678 -0.042027086 0.10106659 0.039416425
000210 01 7b 44 bd 9f 7d dd bd d3 f1 99 bd 90 8f 05 3e
       -0.04796887 -0.10814976 -0.075168274 0.13043046
000220 d5 eb f5 3d 1f 3a 0c 3e 8a 50 a1 bc cc a0 84 3d
       0.12007872 0.13694046 -0.019691724 0.06475982
000230 52 f7 95 bd c5 6e 55 3d 00 3f a3 ba c7 12 54 bc
       -0.07322563 0.05210759 -0.0012454689 -0.01294393
000240 67 2c 21 bd 53 fd c3 3d c0 4e 7e 3c 60 69 21 3c
       -0.039348986 0.09569802 0.015521705 0.0098517835
000250 79 d0 95 bd 24 e6 47 bd c9 cf 8a 3d 29 d5 bc 3d
       -0.07315154 -0.048803464 0.06777913 0.092203446
000260 ad b0 c3 bd 01 82 b6 3d c3 e9 08 3d 08 98 f4 3c
       -0.095551826 0.08911515 0.033426058 0.02985765
000270 3b d8 34 bd c8 5e 0f bd 5c ed 72 3d 30 bd 82 3d
       -0.044151526 -0.0350025 0.059308395 0.06383741
000280 42 da 71 3d 20 14 43 3d 82 0f 75 3d 80 4d 1c bd
       0.059046037 0.047626615 0.059829243 -0.038159847
000290 1c 6a 0f 3d cc dd 08 bd c6 4e a7 3d bd a0 84 3d
       0.035013303 -0.033414647 0.08169322 0.06475971
0002a0 52 b0 9d 3d bc a7 b1 bb 52 9e e1 3d 20 33 38 3d
       0.07699646 -0.005421607 0.11016525 0.04497063
0002b0 95 4d 65 3d 3c c1 30 bd c5 38 91 bd e2 33 fa bd
       0.05598219 -0.043153033 -0.07090906 -0.12216927
0002c0 57 34 05 be ca 80 aa 3d bc 42 88 bd 71 9f 96 3d
       -0.13008247 0.08325346 -0.066533536 0.0735463
0002d0 3c c7 b4 3d 00 54 3b 3a 96 23 b9 bd 38 12 2e 3d
       0.088270634 0.0007146001 -0.090399906 0.042497844
0002e0 e6 6f 34 3a 16 2a cf 3c 02 ed 68 bc 68 3f 11 bd
       0.0006883129 0.025288623 -0.014216663 -0.03546086
0002f0 01 68 45 bd 43 e9 af bd 8e da d3 3d 62 7a 4e bc
       -0.04819489 -0.08589413 0.103444204 -0.0126024205
000300 10 9f 03 3d 20 20 e1 3b 02 9b f8 3d 98 22 e6 bd
       0.032134116 0.0068702847 0.121389404 -0.11237067
000310 30 45 c2 bc cc 90 fa 3d 84 0b 9e bd 2c 32 75 bd
       -0.023714632 0.12234649 -0.0771704 -0.0598623
000320 70 6b 57 3c be b6 a1 3d 48 96 e7 bd 30 d0 29 3c
       0.013148174 0.078961834 -0.11307961 0.010364577
000330 9a 4f b0 3d e8 8d c8 bd 88 c9 ae bc d8 70 f4 bc
       0.08608933 -0.097926915 -0.021336332 -0.029838964
000340 06 da ab bd 40 d0 1e 3d b8 c4 a3 bd bc 77 60 bd
       -0.08391194 0.03877282 -0.079965055 -0.054801688
000350 be d2 bf bd dc 0f b9 3d a6 57 b8 3d a0 b1 d0 3b
       -0.09366368 0.09036228 0.090010926 0.006368831
000360 dc 1c ca 3d 68 cd e4 3d 50 40 b7 3c cc ed 23 3d
       0.09868786 0.11171991 0.022369534 0.040021703
000370 e8 90 18 3d 54 f2 c6 bd e0 34 fd bc 30 76 79 3d
       0.03724757 -0.09714189 -0.030909002 0.060903728
000380 70 a1 49 bd 40 a1 53 3c 6c d1 1c bd a0 cb 84 3d
       -0.049226224 0.012916863 -0.038285658 0.06484151
000390 ce c2 a2 bd 5c e5 99 3d 82 32 ca bd f8 39 90 3d
       -0.07947312 0.0751445 -0.09872915 0.07042307
0003a0 c0 7c 75 3b 18 0a 41 3d 26 1d d1 bd cc eb e4 3d
       0.003745839 0.047128767 -0.10210638 0.11177787
0003b0 80 28 cd 3c f4 f3 a1 3d c2 f4 c1 bd 00 1c da 39
       0.025043726 0.079078585 -0.09470512 0.00041601062
0003c0 e8 2d b8 bc 88 f4 9b bc dc c1 7f bd 0a 1a b8 bd
       -0.022482827 -0.0190375 -0.062440738 -0.089893416
0003d0 16 0d fc bd c0 26 c1 bd dc 18 e1 bd 54 fc 7e bd
       -0.123071834 -0.09431219 -0.1099107 -0.062252358
0003e0 00 61 09 bc e8 c0 68 3d 84 52 dd bd e8 e3 1d 3d
       -0.008384943 0.056824595 -0.10806754 0.038547426
0003f0 26 67 c5 bd 92 00 e1 3d 72 bf c9 3d 1e e4 9e 3d
       -0.09638815 0.10986437 0.098509684 0.07758354

bias f4 [64]
000000 e1 1c 76 39 fc ce 36 bd 02 6d 2f bd a4 62 dd bd
       0.00023471146 -0.04463099 -0.042828567 -0.1080983
000010 c5 3c 1a 3d c4 50 09 3e f0 05 00 3d 62 03 ae bc
       0.03765561 0.13409716 0.031255662 -0.021241847
000020 06 05 d9 3d d6 8f a2 3c 19 17 c4 3d 31 4f 59 bc
       0.10596661 0.019843977 0.09574718 -0.01326351
000030 32 16 b3 bd 18 62 5c 3d 18 d1 db 3d 7a d2 67 3d
       -0.08744468 0.053804487 0.10733241 0.05659721
000040 c1 04 0d 3c a0 ec 76 bc 92 78 d3 bd 6c d4 1a bd
       0.00860709 -0.015071064 -0.10325731 -0.037800238
000050 1f 1c ed b9 b2 cd d8 3d 02 9a 44 bd a7 26 0d 3e
       -0.00045225114 0.10586108 -0.047998436 0.13784276
000060 4d 3f 2d bd ce 9d b2 bd 4f f9 f4 3d 06 02 09 bd
       -0.042296696 -0.08721505 0.11961614 -0.033449195
000070 22 b0 61 bd 2a 86 aa bd 26 e9 2a 3c d2 76 f3 3d
       -0.055099614 -0.08326371 0.0104315635 0.118878976
000080 43 f7 98 bc 0d 89 a4 bd 02 51 bb bd dd df f0 3c
       -0.018672591 -0.08033953 -0.091463104 0.029403621
000090 f1 8b ee bc d0 04 64 bd d0 04 8c bd b2 87 fc 3d
       -0.029119464 -0.055668652 -0.068368554 0.12330569
0000a0 5c bf 84 bd 2f bc f3 3d ee d9 ca 3a 1c 64 af bd
       -0.064818114 0.119011275 0.0015476325 -0.08564016
0000b0 a8 53 04 bd 2e 21 ca bc 6d 59 60 3d 2c d9 89 3d
       -0.032306343 -0.024674024 0.054772783 0.067308754
0000c0 af e4 a0 bd 80 81 91 3d 92 15 b8 bd 23 73 fb 3d
       -0.07856118 0.07104778 -0.08988489 0.1227782
0000d0 64 e9 b0 bc 30 ed a5 bc 92 16 3e 3b ee 7a ce 3d
       -0.021595664 -0.020254701 0.0029005152 0.10082041
0000e0 9d 8e c4 3d aa 9c 54 3b d1 ba fe 3d 8b e1 21 bd
       0.09597514 0.0032442012 0.12437976 -0.039521735
0000f0 52 3d 80 bd 40 42 8c 3c a0 f9 fa 3c 70 d1 22 bc
       -0.06261696 0.017121434 0.030636609 -0.009937629

weight f4 [256, 64]
000000 36 3f a8 bd e0 1b bb 3c 2a 86 e0 bd e6 44 dc bd
       -0.082151815 0.02284044 -0.1096309 -0.10755329
000010 30 34 bd bc de af c3 3d 7a 39 d4 3d 34 59 b4 3d
       -0.023096174 0.095550284 0.10362525 0.08806077
000020 90 c5 42 bd 00 62 6a 3a 80 8d c3 3a b6 93 db 3d
       -0.04755169 0.0008940995 0.001491949 0.10721533
000030 06 96 8f 3d 08 93 a3 3c 50 41 3c 3d f0 10 ae bd
       0.070110366 0.01996757 0.045960724 -0.08499324
000040 00 da db b9 70 33 52 bd a8 94 4a bd 80 b8 bd bd
       -0.00041933358 -0.051318586 -0.049458176 -0.09263706
000050 48 ab 94 bc 60 f1 20 3c e0 ee 82 bc 70 2d 0a bc
       -0.01814808 0.009823173 -0.015983045 -0.008433685
000060 48 cb bb 3c 5c 3f 20 3d ec 33 52 bd 00 94 44 3d
       0.02292408 0.039122924 -0.051319048 0.047992706
000070 a0 9d d8 3b 84 21 39 3d 00 a8 b7 b9 6c 1e 56 bd
       0.0066105872 0.04519798 -0.0003502965 -0.052275106
000080 ac 63 3c bd 9e 1a 81 bd 8e dc 94 bd b2 6c f5 bd
       -0.045993492 -0.06303905 -0.0726863 -0.119836226
000090 28 75 9e bd 80 6f a3 bd b0 46 76 bd bc 3e 73 3d
       -0.077371895 -0.07980251 -0.060126007 0.059386
0000a0 80 d6 9c 3a 46 73 d3 bd 94 49 6f bd 54 9c c4 bd
       0.0011965781 -0.10324721 -0.05841978 -0.0960013
0000b0 56 a3 ef bd e2 ba ef 3d dc 0c 30 3d 44 f4 bc bd
       -0.11701076 0.11705567 0.042981014 -0.092262775
0000c0 a0 3a 1d bc e0 95 22 3c 9e 11 bb 3d a8 77 cb bd
       -0.009596497 0.009923428 0.091342196 -0.09934932
0000d0 4e 75 c6 bd f2 bc 9d bd c0 8a af 3d 6a 35 88 3d
       -0.09690343 -0.07702054 0.08571386 0.06650813
0000e0 56 19 ce 3d 00 32 37 ba d8 5d 55 bd 06 64 9a 3d
       0.10063426 -0.00069883466 -0.05209145 0.07538609
0000f0 52 a0 af 3d e8 9d 59 3d 74 ad 8f 3d ec 8b 71 bd
       0.085755005 0.053129107 0.070155054 -0.05897133
000100 20 57 d5 bd 80 a0 ea 3d 56 89 d8 3d 40 3d c8 bb
       -0.104170084 0.11456394 0.1057307 -0.006110817
000110 80 e2 89 3c 40 dc fc bc 74 13 4c 3d 70 d3 e6 3c
       0.016831636 -0.030866742 0.04982324 0.028176993
000120 f4 08 98 3d f4 ba 30 3d 0e ac 80 3d d0 26 50 bc
       0.07423583 0.043147042 0.06282817 -0.012704566
000130 e0 b9 df 3b 7c 47 c8 3d f8 d4 e3 bd fe 72 c4 3d
       0.006827578 0.097792596 -0.11124605 0.095922455
000140 30 54 ef 3d c0 25 cd bc c4 43 45 bd 5c 0a a6 bd
       0.11685979 -0.025042415 -0.04816033 -0.08107445
000150 26 4c ad 3d 28 a2 2d bd dc c6 36 bd 58 6b 77 bd
       0.0846179 -0.042390972 -0.04462324 -0.060405105
000160 fc ee 03 bd fc 8e ba bd 58 3b ab bc 14 eb 59 3d
       -0.032210335 -0.09109303 -0.02090232 0.053202704
000170 96 90 b5 3d 40 d2 f8 bb f8 7c 82 3c 5e 85 cd bd
       0.08865468 -0.007593423 0.01592873 -0.100352034
000180 48 36 3d 3d 5a 33 eb bd 3e fe e4 bd aa e8 ea bd
       0.046194345 -0.11484404 -0.11181305 -0.114701584
000190 10 05 47 bc d0 60 97 bd 9c d6 b3 bd 90 a6 ce 3c
       -0.012147203 -0.073915124 -0.08781168 0.025225908
0001a0 76 3d b5 bd e4 4e 95 3d f0 55 8e bc c0 0e c4 bc
       -0.08849613 0.07290438 -0.017374963 -0.023932815
0001b0 00 a5 57 3b d4 b9 f3 bd 90 0d a6 3d b2 21 d0 3d
       0.0032904744 -0.11900678 0.081080556 0.10162677
0001c0 50 27 ef 3c fc d0 aa 3d 74 3f 29 bd 34 af 03 3d
       0.02919355 0.08340642 -0.04132028 0.03214951
0001d0 3a 41 b6 bd 84 f4 1f bd 4c d0 18 3d f2 ef 8f bd
       -0.0889916 -0.039051548 0.037308022 -0.07028188
0001e0 fa f1 ed bd c0 39 f8 bb 82 88 f8 3d 5a 0b f5 3d
       -0.11618419 -0.0075752437 0.12135412 0.11965056
0001f0 42 be ca 3d f0 0f 9e 3c 98 41 f5 bc d8 c3 a0 3c
       0.0989957 0.019294709 -0.029938504 0.019624636
000200 b0 1a 3c bd 54 8e 83 3d c6 b6 ed 3d 60 f0 e3 bc
       -0.04592389 0.06423631 0.11607127 -0.02782458
000210 40 df 69 3d 04 9e dd bd 3a 85 bb 3d 51 06 87 3b
       0.057097673 -0.10821155 0.0915627 0.004120626
000220 6e cf df bd ae 6e ad 3d 13 82 f7 3d 69 6c 82 3c
       -0.10928236 0.08468376 0.120853566 0.015920835
000230 e0 6c ca 3c a4 23 71 bd 57 cc 77 bd 8d 66 ea 3d
       0.024710119 -0.05887188 -0.060497608 0.11445341
000240 37 dd 42 b9 cf 2d 5c 3d d8 b7 17 3d c7 9f 5a 3c
       -0.0001858369 0.053754624 0.03704056 0.013343758
000250 e4 5e c3 bd 94 09 d3 bd 7b ce 7f 3d 66 c9 cc 3d
       -0.09539583 -0.10304561 0.062452774 0.09999351
000260 c4 df d6 bd cc 95 81 3d 80 90 df 3c 20 79 e6 bd
       -0.10491899 0.063273996 0.027290583 -0.112535715
000270 30 3a 02 bc 9f d2 24 bd a0 ab e9 bd ea 72 5e bd
       -0.007948443 -0.040239926 -0.11409688 -0.05430881
000280 26 ca ad 3d ca ac 82 3d b8 f2 5e bd ce 6d 36 bc
       0.084858224 0.06380613 -0.054430693 -0.011134578
000290 6c 85 50 3d 21 88 f5 bd e0 a9 69 3c ec 59 24 3d
       0.05090849 -0.11988855 0.014261693 0.04012482
0002a0 2b 35 24 bd 80 19 f0 bb e2 cc 0f bc bf de 8c bd
       -0.040089767 -0.0073272586 -0.008776875 -0.06878423
0002b0 06 94 b1 3d a3 f6 94 bd 82 97 b6 bd fd 4c 0c bd
       0.08670811 -0.07273605 -0.089156166 -0.03425311
0002c0 d6 62 f6 3d 03 a8 08 3d 32 cc f2 bd 56 04 e8 bd
       0.1203057 0.033363353 -0.118553534 -0.11328952
0002d0 17 f7 f8 3d 22 65 e0 3d 4c b1 87 3d 32 db e2 3d
       0.12156504 0.109567896 0.066256136 0.110769644
0002e0 38 08 4e 3d f1 3f f2 bd 32 7f e6 3d a8 8a bd 3d
       0.050300807 -0.11828602 0.11254729 0.09254962
0002f0 3c 2e 22 3d 08 11 99 bc 7e a6 0d 3d 7c 84 15 3d
       0.039594874 -0.018684879 0.034582607 0.0365033
000300 f0 e4 6f 3c 85 8e b0 3d 61 85 96 bd 88 f1 c2 3c
       0.014641985 0.086209334 -0.07349659 0.023796812
000310 e3 a1 3f bd 29 0f 8c 3d bc 2d e0 bd 24 63 6e bd
       -0.046785247 0.06838829 -0.10946223 -0.058200017
000320 b4 86 32 3d 00 fc c4 3a c2 c4 8d bd b4 5d 94 3c
       0.043585494 0.0015028715 -0.06922294 0.018111087
000330 dd 69 43 bd f8 f7 61 bd ff f9 51 bd cd 6e c0 3b
       -0.04770838 -0.055168122 -0.051263805 0.0058725835
000340 d8 74 3a 3d 59 e5 c0 3d 28 36 d2 bc 5d 4d 27 3d
       0.045521587 0.094187446 -0.02566059 0.040845264
000350 31 99 a2 3d 46 c7 40 bd 06 09 f1 bd c6 6d ce bc
       0.07939375 -0.047065042 -0.11769299 -0.025198828
000360 b5 c6 ef 3d 02 47 f5 3d da 7d 5f 3d f8 bc 07 3d
       0.11707822 0.11976434 0.05456338 0.0331392
000370 07 e2 8c bd 50 61 9b bd 6d 4e e7 3d 57 5c 80 3d
       -0.06879049 -0.0758692 0.112942554 0.062676124
000380 ef 17 e1 3d 32 9a d0 3d 7e 90 44 3d bb 86 0c bd
       0.10990893 0.101856604 0.04798936 -0.034308176
000390 f8 0b 0e bd 0d 90 81 3c a5 d9 74 bd 10 1b d0 3c
       -0.034679383 0.01581576 -0.059777874 0.02540353
0003a0 3e c2 de 3d b7 cb 75 bd 12 c3 4a 3d f9 ef df bc
       0.108768925 -0.06000873 0.04950244 -0.027336108
0003b0 11 5a 69 bd ea 63 ad bd 2d 2c 67 3d b7 46 32 3d
       -0.05697066 -0.08466323 0.056438614 0.04352447
0003c0 83 92 bc 3d 8b 8b 87 ba df 85 aa 3d 7c a6 e9 3d
       0.092076324 -0.001034127 0.08326315 0.114087075
0003d0 bf 28 e8 3c da 86 bc bd 68 25 fd bd 67 ec bd 3b
       0.028339742 -0.092054084 -0.1236065 0.0057960036
0003e0 01 80 77 3d 5d a5 62 bd 5c f8 26 bd f3 b4 87 3b
       0.06042481 -0.055333484 -0.040764198 0.004141444
0003f0 63 fb 82 bd 1c 0f 81 3d 44 05 eb bc b4 4c e0 3d
       -0.063956045 0.0630171 -0.028689034 0.1095213

bias f4 [256]
000000 96 8d b2 bd fe 24 dc bd 32 b2 69 bd cf 5d 0f 3e
       -0.087184116 -0.10749243 -0.057054706 0.14000629
000010 76 b4 b4 bd 12 fe e8 3d 06 7b 11 3e 28 6a 16 bd
       -0.08823483 0.11376585 0.14207086 -0.036722332
000020 64 28 07 3e 40 8e 59 3c ac 44 e2 3d 8d 43 e6 bc
       0.13199002 0.013278544 0.11048254 -0.028108383
000030 f8 64 13 bd 57 27 1c bd e0 41 03 bd 76 96 a5 bd
       -0.035984963 -0.038123455 -0.032045245 -0.08085339
000040 a6 93 ac bd fe a8 b7 3c 33 cd c4 3d 9b 66 19 3d
       -0.08426599 0.022419449 0.09609451 0.037451368
000050 ff 38 c0 3d 0f 1e ca 3d 1d a4 05 be 40 38 0c bb
       0.09385871 0.098690145 -0.13050885 -0.0021395832
000060 b1 98 02 3e 52 9c b9 3c b2 52 3a 3d 20 e9 a7 3d
       0.1275356 0.022657547 0.04548902 0.08198762
000070 14 13 52 3d 14 01 6d bd a0 2c 05 3e d0 64 75 bc
       0.051287726 -0.057862356 0.13005304 -0.014977649
000080 13 ea cc bd e9 1c fb bd 24 59 62 3c 12 b1 c3 bd
       -0.100055836 -0.122613735 0.013815198 -0.09555258
000090 75 21 57 3c f0 dc 38 bd b0 ea f1 bd dc f0 fa bd
       0.013130535 -0.045132577 -0.11812341 -0.122529715
0000a0 fc 41 50 bc 8e c0 d1 3d 01 bb 4f bb 27 88 a7 bd
       -0.012711044 0.10241805 -0.0031697156 -0.08180266
0000b0 ae 24 e8 3d ae 07 ca bd cb fa 8c 3d 13 4f b9 b9
       0.11335121 -0.09864746 0.068837725 -0.00035344865
0000c0 de 24 e6 3d f3 ec 29 3d d8 92 8e bd 64 5b 9c 3d
       0.112375006 0.041485738 -0.06961602 0.07634619
0000d0 1e 5e 1c bc 31 06 55 bd 6d 2f b5 bd dc 86 b7 3d
       -0.009543924 -0.052007858 -0.088469364 0.08961269
0000e0 80 11 fd 3b a0 fc 06 3d ff 04 bd 3c a6 ff 44 3d
       0.0077230334 0.032955766 0.023073671 0.048095368
0000f0 e2 22 c2 3c 01 92 92 ba 7e 0a 06 3d ed 34 08 3e
       0.023698274 -0.0011182429 0.03272485 0.1330144
000100 ef ff 97 bc e7 5d 1d bc 78 18 89 3c b6 67 74 bd
       -0.018554656 -0.009604908 0.0167353 -0.05966922
000110 d4 f8 13 3d 74 de d0 bd 50 41 11 bd 31 a7 cf 3d
       0.036125973 -0.101986796 -0.035462677 0.10139311
000120 52 3d 99 bd 5a 7f 29 3d aa 0d 05 3d 90 67 1a 3d
       -0.07482399 0.041381218 0.032483734 0.03769642
000130 5c 72 ac 3c 47 b0 c8 3c 70 34 01 3e 69 b5 12 3e
       0.021050625 0.024498118 0.1261766 0.14327015
000140 1e 51 33 3d 52 cd 96 bd ff 16 ac ba 58 71 fb 3d
       0.04377853 -0.073633805 -0.0013129412 0.12277478
000150 13 72 da 3d db 53 d4 bd c5 cb 30 bc e8 7f a5 bc
       0.10666289 -0.10367557 -0.01079077 -0.020202592
000160 d5 6d a2 3b 4c 37 6a bd 0c 0e 19 bd ca 87 9f bd
       0.0049569407 -0.05718164 -0.03736691 -0.077895716
000170 00 2b 0d be 72 1e bc 3b fd ef 9e bd c8 bc af bb
       -0.13785934 0.005740934 -0.07760618 -0.0053630807
000180 44 a0 3d 3d 40 1c d0 3b cd bc 7b 3d d0 bc 36 bd
       0.04629542 0.006351024 0.06145935 -0.04461366
000190 57 65 26 bd a8 67 7d bd 1c e9 80 bd 02 ae 8c bc
       -0.04062399 -0.061866432 -0.06294462 -0.017172817
0001a0 68 2c d7 bc e0 24 8f 3c 8c 93 78 3d aa a8 8f 3d
       -0.026266292 0.017473638 0.060687587 0.07014592
0001b0 3d 73 d3 3d d9 b4 d4 3d 69 f3 35 3d d6 81 0c 3e
       0.10324714 0.103860565 0.044421587 0.13721403
0001c0 34 88 d1 3d 6d 5f 92 3d 5b 5c 9e 3d 91 9a e5 3d
       0.10231057 0.07147107 0.07732459 0.11211122
0001d0 aa ae b7 3c 3f b9 85 3d f5 e7 93 bd 62 87 e9 bd
       0.022422154 0.065294735 -0.07221977 -0.11402775
0001e0 43 46 27 bd ce 1e 6d 3d 9d fc 95 3d dc a1 e8 bd
       -0.04083849 0.057890706 0.07323573 -0.11358997
0001f0 60 a3 30 bc a3 4e d5 bd 2d 8e 4c 3d 3b 29 b1 3d
       -0.010781139 -0.104153894 0.049940277 0.08650442
000200 43 89 40 3d 7d 45 d0 bd 31 7a 9c 3d dc e0 5a bd
       0.047005903 -0.10169504 0.07640494 -0.0534371
000210 76 58 40 bd ea e9 9d bd cc 8d a7 bd be e8 e3 3d
       -0.046959363 -0.07710631 -0.081813425 0.111283764
000220 fb 1f 88 bd 09 1b 5a 3d d9 5e 34 3d cf 98 9a bd
       -0.06646725 0.05324844 0.044035766 -0.07548677
000230 7c cb 53 3d bb b5 14 bd fa 58 95 bd 39 ff 78 bd
       0.05170773 -0.036306124 -0.072923616 -0.060790274
000240 02 79 35 3d 81 4c 74 3d 3c 6c d6 bd 96 46 84 3d
       0.044304855 0.059643272 -0.10469863 0.06458776
000250 76 f4 e5 3c a1 7c 60 3b 9f 7b 0f 3e 0d 25 51 bd
       0.02807067 0.0034253972 0.14012001 -0.051060725
000260 f0 9e 05 3e df d3 eb 3d 91 0f 1f 3d 05 36 90 3d
       0.13048911 0.115150206 0.038833205 0.070415534
000270 22 dd 3d bd 2f 13 1f 3d 11 98 c4 bd fb e5 b0 3d
       -0.046353467 0.038836654 -0.09599317 0.08637615
000280 0f 3f ba 3d a0 a4 d4 3d 69 56 54 3d 04 de a0 3c
       0.09094059 0.10382962 0.05184022 0.019637115
000290 51 be 8b 3d 28 35 00 bd 3a dd b5 bd 3a 49 d8 bd
       0.06823409 -0.031300694 -0.08880086 -0.10560842
0002a0 8e 6f de bd a0 d1 a5 3d 59 3e 86 3d 53 5a 6e bd
       -0.10861121 0.080966234 0.065548606 -0.05819161
0002b0 95 45 c8 bd 56 5c bc bc 6f 0a 83 bc d0 dc 4c bb
       -0.09778897 -0.022993248 -0.015996186 -0.0031259544
0002c0 f0 20 27 bd 49 74 03 3e 1b 75 77 bd 30 34 05 bd
       -0.040802896 0.12837328 -0.060414415 -0.032520473
0002d0 08 55 8f bd 6b 67 c4 3d 83 78 3c bc f7 71 4c bd
       -0.0699864 0.09590038 -0.011503342 -0.049913373
0002e0 60 2b c0 3d 53 5d 1a 3d 9c ea 92 3d 03 46 52 bd
       0.09383273 0.037686657 0.071736544 -0.0513363
0002f0 c0 17 13 bb 62 1f c9 bd 41 fc 95 3d b8 64 e5 bc
       -0.0022444576 -0.09820439 0.07323504 -0.028002128
000300 34 20 4d 3d 20 46 c8 3c 35 8c 8a 3d 45 fe c2 3d
       0.05007954 0.0244475 0.067650236 0.09521154
000310 4a 23 4e bd 72 53 98 3c 20 c7 94 bc 4b eb 8f bd
       -0.050326623 0.018594477 -0.018161356 -0.070273004
000320 81 9f ff 3d fd 44 8b bc 51 2d ce bb 16 11 5d 3c
       0.12481595 -0.01700067 -0.006292023 0.013492843
000330 fc 2c 01 3e e5 b5 a1 3d 88 74 c7 bc f9 65 44 ba
       0.12614816 0.07896022 -0.024347559 -0.0007492002
000340 5e 97 bd bd 72 df 73 bd c4 0a 4f bd d9 b3 c9 bd
       -0.092573866 -0.059539266 -0.050547376 -0.09848756
000350 b0 06 55 bd dc bd 84 3d 37 7a d2 bd d4 67 66 bd
       -0.05200833 0.06481525 -0.10277217 -0.056251362
000360 80 21 f7 ba 2a 44 f6 3d 77 47 46 bd ae 82 fa bd
       -0.0018854588 0.1202472 -0.048407998 -0.122319564
000370 19 d3 d7 3c 04 10 be 3c 39 2c f3 3d 12 25 5e bd
       0.026345776 0.023200996 0.11873669 -0.05423457
000380 a8 8b af bd 38 c2 ca 3d d8 1c b5 3d 24 0d d9 3d
       -0.08571559 0.099003255 0.08843392 0.105982095
000390 b6 e5 a1 bd c4 38 cf 3c e8 64 8e bd 54 c9 95 bd
       -0.07905142 0.025295623 -0.0695284 -0.07313791
0003a0 2c 5b 97 bd 55 85 bd bd 0a 3a 81 bd 04 cf 0a 3e
       -0.073904365 -0.09253947 -0.06309898 0.13555533
0003b0 7b 41 8e bc 82 e0 e0 3d 4a 34 9f bd 40 3a e7 bc
       -0.017365208 0.109803215 -0.07773645 -0.028226018
0003c0 0f e8 09 3e c1 04 28 3d 69 39 94 bd a7 32 2b bb
       0.1346743 0.04102016 -0.072375126 -0.002612272
0003d0 fd ee 2e 3d f4 f8 e4 3d 1a 2d fb bd 2a 2e aa 3c
       0.042708386 0.111802965 -0.12264462 0.020773966
0003e0 a0 bb 71 bd ec 96 87 3d ce a7 98 bd b8 32 fd bd
       -0.059016824 0.06620583 -0.07453881 -0.123631895
0003f0 60 b1 42 bd 41 2f b8 3d 15 30 b1 3d 1e b3 b9 3d
       -0.04753244 0.08993388 0.08651749 0.09067367

weight f4 [256, 256]
000000 ec 42 96 bc da 8f 5f bd 64 a0 70 bd 5f 84 26 3d
       -0.018342458 -0.054580547 -0.05874671 0.040653583
000010 bc 65 b5 bc be a1 b7 3c 94 54 de 3c 78 a6 c4 3c
       -0.022143237 0.022415992 0.02713994 0.02400516
000020 a7 0f c9 3c ec 7d 19 3d 48 42 1e 3d 6a 55 1b bd
       0.024543596 0.037473604 0.03863743 -0.037923254
000030 08 c4 5b bc e0 41 33 bb b4 45 c6 bc 1c b7 32 bd
       -0.013413437 -0.0027352497 -0.024203159 -0.043631658
000040 fe 12 2a 3d 7a 86 0c bd d6 02 fd 3c bc b7 12 3d
       0.04152202 -0.034307934 0.030885141 0.035819754
000050 92 18 ec bb 31 30 f9 bc 64 fc 61 3d a0 ab 21 3c
       -0.0072050774 -0.030418487 0.05517234 0.009867579
000060 7a 76 2b bc f6 18 22 bd 12 b2 c5 bb 36 84 67 bd
       -0.010465259 -0.039574586 -0.0060331905 -0.05652257
000070 17 af 17 bb c8 01 05 bd 4c 54 36 bd ac fa f6 3c
       -0.0023145133 -0.0324724 -0.044513986 0.030148827
000080 88 98 a7 bc 12 6c 75 3d 62 77 2c 3d 48 f5 66 bc
       -0.020458475 0.059917517 0.04210604 -0.014096566
000090 9c e4 e5 3c 50 ac 71 3d c0 e9 2c 3d 40 da 9a bb
       0.028063111 0.05900222 0.04221511 -0.0047257245
0000a0 07 cd 41 bc 2c 01 cf bc 74 2a 1b bd c8 54 7f 3d
       -0.0118286675 -0.025269113 -0.037882283 0.062336713
0000b0 46 7d b5 bb 40 b1 1a 3b b8 0e 07 3d 16 85 68 3d
       -0.0055386154 0.0023604184 0.03297302 0.056767546
0000c0 1f a3 2a 3d 9a 06 32 bd c0 9d f5 bc 6c e0 f4 3c
       0.04165947 -0.043463327 -0.029982448 0.029892169
0000d0 e2 49 5a 3d 40 69 4e 3b 32 8d 2f bd 50 5d 56 bb
       0.053293116 0.003149584 -0.042859264 -0.0032709427
0000e0 38 a6 58 3c ae 77 25 3c 2a dd b5 bc 06 26 03 3d
       0.013223223 0.010099335 -0.022200186 0.032018684
0000f0 7c 10 bf 3c 52 cf 5b 3d 40 ab 5b 3b d5 cd 63 bb
       0.02332329 0.053664513 0.003351882 -0.0034760137
000100 e8 15 5e bd 55 b9 f1 3c 14 30 cd 3c 4e e3 62 bd
       -0.05422011 0.029507319 0.02504734 -0.055392556
000110 b0 4d 9e 3b 8c 12 52 3d 40 87 36 3b 41 61 b4 bc
       0.0048310384 0.05128722 0.0027851611 -0.02201903
000120 20 ac a7 3c 50 06 bc bb f8 5f dc bc 98 35 b7 3c
       0.020467818 -0.005738057 -0.02690123 0.022364423
000130 0e 6c ea ba 5c 95 3b bd d6 a8 63 3c 42 06 f1 3c
       -0.0017884986 -0.045796737 0.013895234 0.02942193
000140 18 a8 62 bd 20 20 6e bb 00 3a 35 3a bd 0a 98 bc
       -0.055336088 -0.0036335066 0.0006913245 -0.018559808
000150 48 4a ac 3c 63 76 d8 bb 2d 05 22 3d 6f 2d 5e 3c
       0.021031514 -0.0066059097 0.039555717 0.013560637
000160 00 11 4b bd a0 fd 53 bd 62 55 54 3d 73 51 de bc
       -0.04957676 -0.051755548 0.05183924 -0.027138447
000170 20 41 4c bb 6c 85 a1 bc 4c e4 25 3d fc 62 02 3d
       -0.0031166747 -0.01971694 0.040500924 0.03183268
000180 92 1a e3 3c b0 14 ae bb b8 31 5a 3d 04 03 be bc
       0.02772263 -0.0053125247 0.05327007 -0.023194797
000190 09 85 62 3d a0 87 46 bd 86 2e 44 3d 18 c2 74 bd
       0.055302653 -0.048469186 0.04789593 -0.059755415
0001a0 a0 28 e4 3c 00 e3 11 bd a3 23 2c bd f5 22 fe 3c
       0.027851403 -0.035616875 -0.042026173 0.031022528
0001b0 56 91 d0 bc aa 60 12 3b 6b f7 60 3d cd 74 8e bc
       -0.025459927 0.0022335448 0.054923456 -0.01738968
0001c0 ee 49 9c bc 80 f9 24 bd a8 93 0d bd 28 f5 e2 3b
       -0.019078221 -0.040277004 -0.034564644 0.0069261976
0001d0 80 46 17 3c 16 f2 f7 bc 24 e5 e3 bc ec 95 97 bc
       0.009233117 -0.030266803 -0.027819224 -0.018504106
0001e0 80 fd 23 bc 0c ab 28 bd 6b 02 35 bd ac ca 9e bc
       -0.01000917 -0.041178748 -0.04419176 -0.01938375
0001f0 00 cf 00 bb 26 f3 78 3d 6c ff f5 bc 52 fa 10 bd
       -0.0019654632 0.06077876 -0.030029021 -0.035394974
000200 fe 6b 41 3d 3a 74 18 bd 9e 3e 12 bd f0 e4 54 3c
       0.04722213 -0.037220217 -0.035704248 0.012994036
000210 54 46 92 3c cc c7 aa bc 54 d5 c2 bc 79 cd 55 3d
       0.0178558 -0.020847224 -0.023783363 0.052197907
000220 ea c7 25 bd 4f 96 69 bd 54 b7 cd 3c 5c 5b 3b bd
       -0.040473856 -0.05702811 0.025111832 -0.045741424
000230 a6 66 08 3d db a6 29 3d d0 5e d5 bb 88 79 da b9
       0.03330102 0.04141889 -0.0065115467 -0.00041670748
000240 a3 7d 30 3d 2b 76 10 bd b6 eb 73 3d 4c a8 38 3d
       0.043088567 -0.035268944 0.059550963 0.045082375
000250 06 fd 10 3c 26 bb 38 bd 45 a2 60 bd 3b 17 5b 3d
       0.008849388 -0.045100354 -0.054842252 0.05348895
000260 7d 3c b9 bc a2 93 f9 bc 69 66 43 3a 20 7e 07 bd
       -0.02261185 -0.030465905 0.000745392 -0.033079267
000270 f0 be dd 3c 02 1e 1a 3d 40 0f dd 3c 49 9e 2b bd
       0.027068585 0.037626274 0.02698481 -0.041899
000280 15 5b ec bc 02 c5 07 3d 9d ec 14 3c 2c 6f 7f bd
       -0.028852025 0.033146866 0.009089616 -0.06236188
000290 5b 9f 2d 3d 8a 47 14 bd 48 1d 66 3c 04 00 c6 bc
       0.0423883 -0.036201037 0.014045067 -0.02416993
0002a0 f4 03 c6 3c 81 7f 92 3a b8 80 71 3c de 72 0f 3d
       0.024171807 0.0011176915 0.014740162 0.035021655
0002b0 3f 6a 59 bd b1 ca 1c bd d7 43 54 3d 0c 24 91 bc
       -0.05307984 -0.03827924 0.05182251 -0.017717384
0002c0 ec e5 d1 3c 53 6f 33 bd 88 48 6d 3d 1a d2 07 3d
       0.02562233 -0.04380734 0.0579305 0.033159353
0002d0 1c da 90 3c 90 8e 34 bc 18 cb b6 bc 47 bc 06 bd
       0.017682128 -0.011020318 -0.02231364 -0.0328944
0002e0 f8 94 b2 3c 1d a2 0a bc 58 fa 74 bd e8 cc 1d 3d
       0.02179955 -0.008461502 -0.05980906 0.038525492
0002f0 8c 57 18 bd b0 c9 2b bd 18 ff 36 bd ea 6d 76 3d
       -0.037192866 -0.04194039 -0.04467687 0.060163416
000300 75 54 66 bd c0 53 62 3b ec 53 6e bd d7 7a 4f 3d
       -0.05623289 0.0034534782 -0.058185503 0.05065426
000310 00 64 72 b9 38 64 51 bd f4 54 c1 3c df 42 49 3d
       -0.00023116171 -0.051120967 0.02360008 0.04913604
000320 bd 9f 70 bb be cc 52 bd fd 8d 26 3d 32 d6 75 bd
       -0.0036716305 -0.05146479 0.040662754 -0.060018726
000330 9b 06 e6 3c 0c 1f a5 3c 07 ed 15 3d 6e 95 14 3c
       0.028079322 0.020156406 0.036603 0.00906883
000340 f0 5b cb bb 10 6f 2e 3c 0a 88 63 bd fd bd 0a 3d
       -0.006206028 0.010646597 -0.05554966 0.033872593
000350 1c df e4 3c 50 5a 71 bd 8a 50 60 3d 28 0d 74 bc
       0.027938418 -0.05892402 0.054764308 -0.014895715
000360 40 c0 08 bb 6b ef 18 3c e1 6c 30 3d 3e 22 7a 3d
       -0.0020866543 0.009334425 0.043072585 0.061067812
000370 80 10 71 3d 7f 5b 21 3d 87 44 ce ba 50 2b 0d bd
       0.058853626 0.039393898 -0.0015736975 -0.034465134
000380 00 43 3f bd 8c 3d 6c bd c6 f3 12 3d 23 10 b2 3b
       -0.046694756 -0.057675883 0.03587701 0.0054340526
000390 28 e3 8b 3c a1 6b 40 bd 04 ac fe bc da 4a 78 bd
       0.01707609 -0.046977643 -0.031087883 -0.06061826
0003a0 d6 69 41 3d 0c 82 4e bd 64 06 b3 3c f3 58 04 3d
       0.047220074 -0.05041699 0.021853633 0.03231139
0003b0 42 fd 6e bd c1 7c 26 3d fc 4e 50 bd 86 97 38 bd
       -0.058346994 0.04064632 -0.050856575 -0.04506638
0003c0 20 8a 93 3c 02 f1 2a 3b 06 0b 64 bd 78 6a 20 ba
       0.0180102 0.0026083593 -0.055674575 -0.00061193807
0003d0 e3 e4 4a 3d 90 2e 0b 3a e4 67 f5 bc f9 a5 0f 3d
       0.04953469 0.00053093676 -0.029956765 0.035070393
0003e0 3c ac 4f 3d 39 a5 3c 3b 44 00 ea bc e0 fd 1b bc
       0.050701365 0.0028785004 -0.02856458 -0.009520978
0003f0 48 e9 4f bd 1e b7 9c bc c0 3b 52 bc b4 14 2c bd
       -0.050759584 -0.019130286 -0.012831628 -0.04201193

bias f4 [256]
000000 2b 08 2a bc e5 7e 4f b9 1e d7 4f bd 6e 14 43 3c
       -0.010377924 -0.0001978833 -0.05074226 0.011906726
000010 d7 e0 0b 3d fa 42 fc bb ff 94 64 3d 1b c6 28 3d
       0.03414997 -0.007698414 0.055806156 0.041204553
000020 14 d8 23 3d 8d d9 22 bc 38 3b 9e bc b0 55 1b 3b
       0.04000099 -0.009939563 -0.019315347 0.0023702197
000030 fd 75 1f 3d 9e 6b 2c bd 71 66 95 bc b6 20 50 bd
       0.03893088 -0.04209482 -0.018237324 -0.050812446
000040 f4 0f 6e bc 06 4f 15 bd ab fb 54 bd 7d cd 4f bc
       -0.014530171 -0.036452316 -0.05199782 -0.01268327
000050 e4 c4 2a 3d 12 cf 20 3d c2 49 50 bd ec aa 81 3d
       0.041691676 0.039259978 -0.05085159 0.06331429
000060 32 8e 33 3d 57 2a b7 ba 6f c5 fa 3c 9a 70 72 bd
       0.04383678 -0.001397441 0.030611722 -0.059189416
000070 e7 93 63 3d dc ce ae bc 09 17 c8 3c 64 b7 90 bd
       0.055560973 -0.021338873 0.024425047 -0.07066229
000080 85 ef 15 bd da 6e 98 3d 49 23 dd 3c f8 0e 6e bd
       -0.036605377 0.07443018 0.026994364 -0.058119744
000090 00 4f e3 b9 f0 81 f8 b9 c0 50 91 3b 67 de c7 3c
       -0.00043355674 -0.00047399057 0.004434675 0.024398042
0000a0 50 b5 67 3d aa b1 1a bd 86 e7 29 3c 13 7c a1 3d
       0.056569397 -0.03776709 0.010370141 0.078849934
0000b0 3d 64 bb bc 33 8c 86 bd eb 33 3c 3d f2 9b 10 3d
       -0.022874946 -0.0656971 0.04594795 0.03530497
0000c0 1c 1d 4e 3d ea d5 6b bd dd 65 f8 bc 70 28 64 bd
       0.05032073 -0.05757705 -0.03032201 -0.055702627
0000d0 94 04 8c bc 15 a6 9d bc 16 7c 51 bd 54 82 e6 3c
       -0.017092027 -0.019244233 -0.05114373 0.028138317
0000e0 42 0c 5f bb 73 4a 91 3d f9 69 64 3d c3 08 52 bc
       -0.0034034406 0.07094278 0.055765126 -0.012819472
0000f0 97 42 31 bd 0e 3c 6a 3c f0 21 1e 3d fb b1 a5 3d
       -0.043276396 0.014296545 0.038606584 0.08090588
000100 82 17 3d 3d b4 ac 3d bd bb 93 05 3d 0b 08 9f 3d
       0.046164997 -0.04630728 0.03261159 0.07765206
000110 44 5c 4a bd 52 b0 0b bd d8 33 f9 3c 6d 00 34 bc
       -0.049404398 -0.0341037 0.030420229 -0.01098643
000120 65 76 35 3d bb 11 21 39 78 66 24 3d 46 31 e1 ba
       0.044302363 0.00015360762 0.040136784 -0.0017180822
000130 5f a5 0a bd 1c dd ec bc b7 56 7e 3d 70 b8 bf bb
       -0.033849116 -0.028914027 0.062094416 -0.005850844
000140 56 40 28 3d 7c f2 62 bd 4a f4 72 bd 84 fd 68 3d
       0.04107698 -0.055407032 -0.059315003 0.056882396
000150 75 fe 47 bd 10 b6 22 bc a0 3d 38 3c 20 1e 0b 3b
       -0.048826654 -0.009931102 0.011245161 0.0021227673
000160 4a 2d 3d bd 0e 41 98 bd 6d 36 26 bd e7 f2 76 3d
       -0.04618577 -0.07434283 -0.04057925 0.060290243
000170 74 50 a9 3c 4a 03 4d 3b cc 4c 79 bd b0 ee 53 3b
       0.020668246 0.0031282478 -0.060864255 0.0032338314
000180 9c ae 07 3b d0 3f 83 bc f0 d5 75 bd 0f 1f 51 bd
       0.002070344 -0.01602164 -0.06001848 -0.05105501
000190 eb bb 38 3d fc d1 16 bd 52 5e 01 3d cf d4 23 bd
       0.045101088 -0.03682135 0.03158409 -0.039997872
0001a0 cc 36 47 bd 9c 36 1d bc a0 08 96 3d 3d 56 6a 3d
       -0.048636243 -0.009595539 0.07325864 0.05721115
0001b0 b0 e4 8c 3d 5d 0b 00 3d a1 30 a3 3c 0a f0 8e bc
       0.06879556 0.031260837 0.019920649 -0.017448444
0001c0 94 26 09 bd 06 28 61 3c 2c 01 6c 3b aa 3b 5a bd
       -0.033484057 0.0137424525 0.003601144 -0.053279556
0001d0 56 44 49 bd dd f2 61 bd aa 69 53 3b 2d 8a cd 3c
       -0.049137436 -0.055163253 0.0032259026 0.025090301
0001e0 01 5f e8 3c d1 77 8d 3b d8 83 16 ba 68 83 38 39
       0.028365614 0.0043172617 -0.0005741692 0.0001759656
0001f0 76 c1 f1 bc 28 f9 1a 3d 1a 06 62 3d cc 3d 43 bc
       -0.029511195 0.03783527 0.0551816 -0.011916589
000200 98 f0 6f bb 3e 34 37 bd b1 fc 87 3d 92 69 91 bc
       -0.003661191 -0.044727556 0.06639994 -0.017750535
000210 70 5d b8 3b dd 88 40 3d c9 7f 81 bd f5 4a 23 bd
       0.005626373 0.047005523 -0.06323201 -0.039866406
000220 1e d2 21 3c d8 92 74 bc f4 ab dd bc ab 39 7f bd
       0.009876756 -0.014927588 -0.027059533 -0.062310856
000230 d4 7b 84 3d a6 f5 1c 3d f8 07 79 bc 38 fe 93 bb
       0.06468931 0.038320206 -0.015199654 -0.004516389
000240 0e 46 13 bd d4 53 a1 3d 20 a6 ac bc bf 36 6f 3c
       -0.03595548 0.07877317 -0.021075308 0.014600455
000250 cc ac 3e bc a9 9b e7 3c e8 67 6e bc d4 f9 b6 bc
       -0.011637878 0.028272467 -0.01455114 -0.022335924
000260 ee b4 59 bd 4b aa a2 bc cd 60 4d 3d 30 d7 89 3c
       -0.053151064 -0.019856593 0.050141145 0.016826242
000270 63 78 43 bd e6 3b 6c 3d 30 7a 44 3d 56 a5 46 bd
       -0.04772223 0.05767431 0.04796809 -0.04849752
000280 00 ce 3c 3a 13 03 74 bb 9c 19 f0 3c cb 70 94 3c
       0.0007202327 -0.0037233278 0.029309087 0.01812019
000290 88 2e fa bc 2a 46 56 bd ce 00 ce 3c 56 01 32 bd
       -0.030539766 -0.052313007 0.025146868 -0.043458305
0002a0 9c 86 88 3d 98 35 57 3c 24 2d 81 bd 73 bc b1 bc
       0.066663 0.013135336 -0.06307438 -0.021696305
0002b0 52 56 73 bd 67 9a ce 3c f6 6f 93 3c 8f be 8c 3d
       -0.059408493 0.02522011 0.017997723 0.06872284
0002c0 40 d5 3c 3c 17 36 54 3d 53 76 64 3d c5 ca 9b bc
       0.011525452 0.051809397 0.055776905 -0.019017586
0002d0 1c 7d 1b bd 50 cb 13 bd 86 e8 41 3d 9e 67 37 bc
       -0.03796111 -0.036082566 0.047340892 -0.011194138
0002e0 fb 46 8b bc 83 c2 0b 3d 60 f8 8f 3d fd e9 f0 bc
       -0.01700162 0.034121048 0.07029796 -0.02940845
0002f0 94 0e 4c bc 7d b5 12 3d ed 64 73 3d b0 14 81 3d
       -0.012454648 0.035817612 0.059422422 0.06302774
000300 76 84 32 3d c4 08 d8 bc 73 2c 85 bd c1 e4 79 bd
       0.043583356 -0.026371367 -0.06502619 -0.061009172
000310 5a a2 71 3d 74 83 a4 bc 20 34 d6 3b 9f cd 93 bc
       0.05899272 -0.020082213 0.0065369755 -0.018042384
000320 04 81 83 3d b3 0a 0a bd da af 30 bd bb 7d a6 3d
       0.06421092 -0.03370161 -0.043136455 0.0812945
000330 ce b0 57 bd 55 0c 6c 3b f7 be b9 3a 7e 3c 0d bd
       -0.05265885 0.0036018093 0.0014171292 -0.034481518
000340 46 54 80 3d 36 24 4d 3c a9 13 04 bd 90 81 cb bc
       0.06266074 0.01252084 -0.032245312 -0.024842054
000350 28 11 50 3d 63 7e a6 3c 9a 3a c2 3b e8 63 2d bd
       0.05079761 0.020323938 0.005927396 -0.042331606
000360 fc 53 30 bd 7a c8 e7 bb 4c 52 4d bd 3c 25 98 3c
       -0.043048844 -0.007073459 -0.050127313 0.018572442
000370 db 33 2d 3d 07 4f 56 3d 22 ee cd bc 23 03 86 bd
       0.04228578 0.05232146 -0.025137965 -0.06543567
000380 b6 07 70 bd 20 97 41 3d 2b c1 7f 3c 61 0d 09 3d
       -0.058601104 0.047263265 0.01561002 0.033460025
000390 6b a7 77 3d ea 88 3a 3c 97 33 66 3d f0 aa 97 bd
       0.060462397 0.011385182 0.056201544 -0.074056506
0003a0 16 78 57 bd d0 76 34 bd 64 74 23 3d 8a cf 99 3d
       -0.052604757 -0.04405862 0.03990592 0.07510288
0003b0 07 ae 14 bd 03 8f 98 3d 51 08 e3 3c 74 d7 74 bd
       -0.036298778 0.07449152 0.027713927 -0.059775785
0003c0 3a b4 58 bd f7 86 c6 bc b4 7e bf bc 76 34 3a 3c
       -0.052906252 -0.024234278 -0.023375846 0.011365047
0003d0 cf c6 7b 3c 4c 23 80 3d 00 ec d0 3b 8a e4 d5 bb
       0.015367224 0.06256732 0.0063757896 -0.006527488
0003e0 ba e6 5e bd f8 50 54 bd fb 26 32 3c 04 49 3d bd
       -0.054419257 -0.05183503 0.0108735515 -0.04621221
0003f0 45 ae 36 3d d8 cc 45 bd db 4e 88 3d 27 75 42 3d
       0.04459979 -0.048291057 0.066556655 0.047475006
