saved_model_states/savedmodel_displacement_50000.pkl (torch, 627460 bytes, 25 tensors)

weight f4 [64, 3]
00000000: 64d9 11bf 8bda fa3e 4db8 c8be 33ea 5cbd
00000010: 8dba 8ebe b119 cbbe 46b9 0ebf 6625 58bd
00000020: 4709 f5be f5af fdbe d295 003f 4b25 0c3f
00000030: 2799 b13d db2e a03e a51b 283f 759d f4be
00000040: 6233 e2be 50cf edbd 5ffa 2bbd bdb4 c83e
00000050: 0a05 9bbd 73fa d93d f8e4 083f 20cc e4be
00000060: b5c5 ccbe 5def 8e3e 0681 033f ab1c 693e
00000070: 726f 05bf 0854 0e3f 0694 ddbe 25b4 42be
00000080: e5ec 7f3c 8e64 39be ce28 103d eadd ebbe
00000090: 521a eb3e 0214 603e 9ac2 7cbd 9472 f2be
000000a0: e673 ff3e 66d2 42bd 59a2 8a3e e727 e33e
000000b0: 5a8b bd3d c416 ebbe 4246 ca3e d8b8 ddbe
000000c0: 0471 5ebe 4ebf 0abf f1c2 e93e b2f6 d53e
000000d0: f79f ab3e e59b da3d c11e 69bd 2899 ab3d
000000e0: be9f b6be 2ffd de3e f918 f2be 90e2 54be
000000f0: 0422 ec3d 35c0 52be 2a7d 04bf 78a3 54be
00000100: 09ad 983e 17e7 f6be 59bc 133f 43e8 b23e
00000110: 94fe 073f 4333 823e 8674 eb3e dbaa 86be
00000120: ec8a 8f3e 4405 0fbe 40b2 03bf f0ea 27be
00000130: 5e4d 003e 0533 2bbe f767 a93e 64be e43e
00000140: 95c9 873e 7c66 d13e b475 0fbe c8d5 683e
00000150: d682 00bf eaac c5be f7bd bbbe e007 a13e
00000160: f469 b23e 7bc9 3bbe e898 86be 8c38 26be
00000170: 4366 ef3e de2a 2fbe b729 8a3e a4c2 e6be
00000180: 8920 83bc d89a 0b3f 5482 103f d096 30be
00000190: df8f 0c3f 732c e2bd 720a 48be 389c bebe
000001a0: baa7 fabe eef0 81be 3a8e 033f 5de7 4cbd
000001b0: e0b7 a03e 038a efbe db77 66be 80e4 143e
000001c0: 45e2 503e 2b0d 2fbe b750 f6be e278 a7be
000001d0: f053 9e3d fe5a 0ebf 5d58 623e 140f 9b3e
000001e0: f667 4e3c 15b9 d4bd c1bc aebe c2a1 d43e
000001f0: a9d8 d83e 1fa2 813e ba79 93be b542 ac3e
00000200: 32e1 29bd 0f70 fdbe 1cef 8a3e e867 f43e
00000210: f2cd 8a3e abe5 383e 9531 d0be bb4b 55be
00000220: 02f2 153e 1b17 b43e 6904 8d3e f541 27be
00000230: 85ed be3d dc3f a0bc b24a 853e c927 7a3d
00000240: 1c8b 703e 0f6f 67be d67c 183f 4813 5dbe
00000250: 51a0 d0be 4d53 66be 8d94 a53d 4d05 c5be
00000260: c55d ecbb e698 d53e f124 71be 4fbe 9c3d
00000270: d3f0 0f3f b40d cdbe 3f08 f1be e762 5dbe
00000280: fce5 9d3d e6b0 8f3e f3bc 73be c6cb 023f
00000290: ad56 f23c 9525 dc3d ffe2 eebe 1add 8b3d
000002a0: 8e6b d3bd 869c 1d3e 3383 b73c 10ff 2b3e
000002b0: 9fe8 ffbd 255a 373e fb49 ce3d bebb 513d
000002c0: ead8 103f 1bb9 c2bd 93cf a5be 0807 74bc
000002d0: 0dc8 0a3e f060 9ebe 8d14 eabd e6ff 993d
000002e0: 5817 783e 6c66 c5bd 2bbb edbe 7236 013f
000002f0: 57b9 9dbe d75f 403e 5338 fabe b41a 87be
-0.56972337 0.4899486 -0.3920311 -0.053934287 -0.27876702 -0.39668038 -0.55751455 -0.05277004
-0.4785864 -0.49548307 0.5022861 0.54744405 0.086717896 0.31285748 0.6566718 -0.4777638
-0.44179827 -0.11611807 -0.04198682 0.39200392 -0.075693205 0.106434725 0.5347438 -0.44686985
-0.39994588 0.27916995 0.5136875 0.22764842 -0.5212318 0.5559697 -0.43276995 -0.19014032
0.015620445 -0.18104765 0.035195164 -0.46067744 0.45918518 0.21882632 -0.061709024 -0.4735304
0.4989311 -0.047563933 0.27076986 0.4436638 0.09255095 -0.45915806 0.39506727 -0.43305087
-0.217228 -0.5419816 0.4565654 0.41789776 0.3352048 0.10674266 -0.056914095 0.083788216
-0.3566875 0.4355254 -0.47284678 -0.20789552 0.115299255 -0.20581134 -0.51753485 -0.20765483
0.29819515 -0.48223183 0.5770927 0.34942827 0.5312283 0.25429735 0.45987338 -0.26302227
0.28035676 -0.13966852 -0.5144386 -0.16398215 0.12529513 -0.16718681 0.3308713 0.44676507
0.26520982 0.40898502 -0.14009744 0.22737801 -0.5019964 -0.38608485 -0.3666837 0.3145132
0.3484646 -0.18338577 -0.26288533 -0.16232508 0.46757707 -0.17106196 0.2698495 -0.45070374
-0.016006725 0.5453315 0.56448865 -0.1724503 0.5490703 -0.11043634 -0.19535235 -0.3722856
-0.4895609 -0.25379127 0.51388896 -0.050025333 0.31390285 -0.46784982 -0.22506659 0.14540291
0.20398815 -0.17094867 -0.48108456 -0.32709414 0.077308536 -0.55607593 0.2210402 0.3028494
0.012598028 -0.10386864 -0.34128383 0.4152966 0.423528 0.25319 -0.28803807 0.33644643
-0.04147453 -0.49499556 0.2713555 0.47735524 0.2711025 0.18056361 -0.40662828 -0.2082967
0.146431 0.35173878 0.27542427 -0.16333754 0.09322647 -0.0195617 0.2603355 0.0610731
0.23490566 -0.22600959 0.59565485 -0.21589386 -0.40747312 -0.22492714 0.080849744 -0.38480607
-0.0072133266 0.41718215 -0.23549248 0.07653486 0.56226844 -0.40049517 -0.47076604 -0.2161976
0.07709882 0.2806465 -0.23802547 0.51092184 0.029582346 0.10749356 -0.4665756 0.06829281
-0.10323249 0.1539174 0.022401428 0.16796517 -0.12495541 0.17905481 0.100727044 0.051204436
0.56580985 -0.09507962 -0.3238493 -0.0148942545 0.13552876 -0.30933332 -0.11429701 0.07519512
0.24227655 -0.09638676 -0.4643186 0.504737 -0.30805466 0.1878656 -0.48871097 -0.2638756

bias f4 [64]
00000000: c4ee 4e3e 56f3 ccbe 69f7 f93e 0044 1abe
00000010: 3e9a b1bd de50 0dbf ace3 a73e 0154 843c
00000020: 3182 8ebe 257f 4dbe 56ed e63e ad56 cebe
00000030: 106a 00bf e3fc a1be 66c1 0e3f 8f83 1a3d
00000040: 48e4 0f3f e1cd a6bc afb6 8b3e a3dc e0be
00000050: 8297 6dbe 2f7d acbe 09b1 81be 5f88 fabe
00000060: dae1 543e 0084 9cbe 293a e73e 9fb8 ac3e
00000070: 7f99 f1be f442 3b3e c01f 903e 4a8f 55be
00000080: a845 d43e 9697 853d 7e23 b6bd 15ce 8d3b
00000090: 6b8c 8abe 8a36 debe c1ad e1be 15da 61be
000000a0: bc90 f2be 2999 d4be 864f e7be 42d7 8abe
000000b0: 01b1 5dbd ba00 13be 653a 0f3e 3aa8 093f
000000c0: 3f86 70be 4d72 6abe 0b83 e5be c06f c1be
000000d0: bae7 86be 61dd c53e 12e0 e9bd 4447 093f
000000e0: bb2f c9bb 28e6 1abe fd3d cebd e320 46be
000000f0: c371 833e 4bae dd3e 337a ea3e dbde ad3d
0.2020827 -0.400294 0.4882157 -0.15065002 -0.086719975 -0.5520152 0.32790887 0.016153337
-0.27833703 -0.20068033 0.45102948 -0.40300503 -0.5016184 -0.3163825 0.5576385 0.03772312
0.56207705 -0.020361843 0.27287814 -0.43918332 -0.23202327 -0.33689258 -0.2533038 -0.48932168
0.2078928 -0.30569458 0.4516156 0.33734605 -0.4718742 0.1828726 0.28149223 -0.20855442
0.41459394 0.06523053 -0.08893488 0.0043275454 -0.27060255 -0.43400985 -0.44077876 -0.22055848
-0.4737605 -0.41523102 -0.4517786 -0.27117354 -0.054123882 -0.14355746 0.1398712 0.5377232
-0.23488711 -0.22895165 -0.4482654 -0.3778057 -0.26348668 0.3864546 -0.11419691 0.5362437
-0.006139723 -0.1512686 -0.10070417 -0.19348483 0.2567273 0.43297037 0.45796356 0.08489772

weight f4 [64, 64]
00000000: 7efb 193d 389a ce3d d358 21bd b395 babd
00000010: 77d8 e8bd d4f6 3d3d e5a2 6d3d bf90 a6bd
00000020: 0a62 4e3d 42ce 593d 5c7d 053e 6682 d9bd
00000030: 00f5 2f3b 5103 8e3c ab82 8c3d b207 bb3d
00000040: 44d4 96bd c0f4 1f3d 99c4 633d d005 a23d
00000050: 5481 073d 6026 233c f317 533d 0cdb bfbd
00000060: 8233 e1bd 3041 f33d 16ec 823d e167 e0bd
00000070: 869b 803d ea1f 933d eb68 8b3d 0ae2 7e3c
00000080: e5ed c13d 503a a6bc 4691 c23d 44c4 3bbd
00000090: 2671 6abd a8be 91bc 88dc 853c 7af2 8a3a
000000a0: c2e5 a0bd 3a97 dcbc a03d a6bc 7736 87bd
000000b0: 6aeb 9bbc fab7 c6bc e709 3fbd c891 2c3d
000000c0: 97c4 b13c 8613 9ebd c8c8 f5bc cad9 b4bd
000000d0: 00ad c33d 022f ba3d 080a 8fbb eaaa f23b
000000e0: 879a 24bc 0fb1 ab3d c078 193e 8c14 30bd
000000f0: 9276 40bd 52a8 32bd dd94 55bd 535f b7bd
00000100: 9294 b23d de03 c13d ccce 463d 98bb b7bc
00000110: 5618 cdbd 2210 dd3d e89b bb3d 94fb b5bd
00000120: ba8f df3d 3835 89bc 78da fc3c 1c4f a43d
00000130: 4867 b6bd b060 f63c 4899 d9bc 7036 f23d
00000140: 2eaa ac3d 9eed d83d 304b 9b3d 60e6 d0bb
00000150: 38f2 79bd 8e9e bf3d 4e7a cd3d 30fb edbc
00000160: 8cfd a2bd 4e76 fcbd f600 903d 303a 1c3c
00000170: 7c34 78bd 6e16 f5bd 5483 a8bd 7a17 a7bd
00000180: 64f7 e5bd e4f7 aa3d e484 473d 7473 1b3d
00000190: e432 0c3d f81f f7bd 7a9b f4bd 00df 47bd
000001a0: e239 b8bd a8b0 8f3d 5ec2 803d a6e8 abbd
000001b0: 3053 fd3d ec0f 93bd d82d fabd ba1e a8bd
000001c0: 0011 643b 8892 973d 80af b43b 0066 aa3b
000001d0: b090 103c f850 e23d 2c2e dbbd 6618 e4bd
000001e0: dcac 6abd 10d9 66bc 24d0 203d 1ad0 d03d
000001f0: 5e50 edbd 9c9b 333d 60c7 f1bd c2d4 b63d
00000200: 34ce 14bd 7423 eb3d f810 aa3d 7458 05bd
00000210: 6cdb 263d 60cd 15bd 385e 4cbd 9899 863d
00000220: aa64 87bd 902a 54bd ec7a 2a3d 362b cebd
00000230: 00ad a83d c061 953d 5853 92bd ac2a 6ebd
00000240: 58b3 df3c 68aa b73c 38f7 22bd 4049 8a3d
00000250: 0a2f d9bd f401 92bd 50c2 c03d 58ce 293d
00000260: 38b8 80bd 22a8 eebd 3475 bfbd d0a7 263c
00000270: 9a25 d2bd cea9 95bd 803f a33a cce4 f63d
00000280: 784a 7abd 003e 0b3c e8c4 3e3d 9018 71bd
00000290: e863 d93c 3e37 ffbd 7614 99bd ec1f 24bd
000002a0: c01e 243d f479 7abd a47c 933d 38de 43bd
000002b0: f0a5 31bd aeab 863d cca7 7f3d 541a 6c3d
000002c0: 103b 4bbd 5c18 163d 1837 803d 00b8 c33d
000002d0: f470 2dbd 5a48 dbbd 8c86 fb3d 0085 7d3c
000002e0: 5655 81bd 9c48 7c3d 466d aa3d 145a 09bd
000002f0: 70b6 4fbd 9004 8fbc 1cfc 143d b0a4 fa3c
00000300: 3373 a03c 78e9 e93c 9529 0e3c 9bee a43c
00000310: 0099 8f3c 46c4 cd3d a999 f83d dddf dc3d
00000320: 4226 6a3e 4b0f ad3c 0780 e23d 3c4b 22bd
00000330: e422 72bd f518 9c3d e97c 1a3c 4fe3 5cbd
00000340: 3950 13bd 456f 29bd ed8b 95bd ac47 d5bd
00000350: 668f adbd a89f 7e3d f465 073d 5e20 903d
00000360: d93c 213c 5899 9a3d 4ffc 22bc ba1c 003e
00000370: 5abb f13d 1bc3 cdbd 9dfa d43d 936a c7bd
00000380: 5474 c83d 337c c9bd f497 733d 6218 8a3d
00000390: 1c1f 493d 2ee5 94bd 4ab2 f5bd f8a1 223e
000003a0: 8cfe 353d c932 afbd b87b cb3c 2ee2 613e
000003b0: 30fb c43d 30ba fe3c 8589 e03c 9e66 38bd
000003c0: f22f 603e 00f4 b0bd aa1c a0bd 394e df3d
000003d0: 276c 34bd e4e6 f7bc f3fe 393d 4328 dcbd
000003e0: 2c7d b3bb 681a b3bc 5d12 703e 403d 24bc
000003f0: 986f 23bd 5b62 da3d a8b3 dd3b 014a a0bd
0.037593357 0.10088009 -0.03939135 -0.09110584 -0.113694124 0.04637797 0.058016676 -0.08133077
0.050386466 0.05317522 0.13036102 -0.10620575 0.0026848912 0.017335566 0.068608604 0.09132327
-0.07364705 0.03905177 0.055607412 0.07911265 0.03308232 0.00995788 0.05153651 -0.09367952
-0.109961525 0.11877668 0.06392686 -0.10957313 0.06279664 0.071838215 0.06807121 0.015556822
0.09469203 -0.020291477 0.09500365 -0.04584147 -0.057236813 -0.017791107 0.016340509 0.0010600828
-0.07856323 -0.02692758 -0.020293057 -0.06602185 -0.019033153 -0.024257649 -0.046640303 0.042131215
0.021700187 -0.077185676 -0.030002967 -0.088306025 0.095544815 0.09090997 -0.0043652095 0.0074056285
-0.010046608 0.083833806 0.14987469 -0.042988345 -0.046988077 -0.043617554 -0.05214392 -0.089537285
0.08719744 0.09424566 0.04853706 -0.022428319 -0.10014407 0.10794093 0.09160596 -0.08885875
0.109160855 -0.01674901 0.030865893 0.080229014 -0.08906418 0.030075401 -0.026562348 0.118267894
0.08430897 0.10592197 0.075827 -0.006375119 -0.061022013 0.09356414 0.100330934 -0.02905044
-0.079585165 -0.12327252 0.07031433 0.009535357 -0.060596928 -0.11967169 -0.08228174 -0.08158775
-0.11228827 0.08348063 0.04871072 0.0379519 0.03422822 -0.120666444 -0.11943717 -0.048796654
-0.08995415 0.070161164 0.062870726 -0.083939835 0.123693824 -0.07180771 -0.12215775 -0.082089856
0.0034800172 0.074009955 0.0055140853 0.0052001476 0.008823559 0.110506 -0.10702166 -0.11137466
-0.057293758 -0.014089838 0.039261 0.10195942 -0.115875944 0.043849573 -0.11805606 0.08927299
-0.036329463 0.114813715 0.08304018 -0.03255506 0.0407366 -0.036572814 -0.04989454 0.065722644
-0.06610997 -0.051798403 0.041621134 -0.100668356 0.08236122 0.07294035 -0.07144803 -0.058146164
0.027307197 0.022420123 -0.039786547 0.067522526 -0.10604675 -0.07129279 0.09412062 0.04145655
-0.06285137 -0.116531625 -0.093485266 0.010171846 -0.10261078 -0.07307778 0.0012454838 0.12055358
-0.061106175 0.008498669 0.046574503 -0.058861315 0.026536897 -0.124617085 -0.07474606 -0.040069506
0.040068388 -0.06115146 0.07201508 -0.047819346 -0.04337114 0.06575714 0.062415883 0.057642296
-0.049616873 0.036644325 0.06260508 0.095565796 -0.04234405 -0.10707159 0.12281522 0.015473604
-0.06315105 0.061592683 0.083216235 -0.03353317 -0.050711095 -0.01745823 0.036373243 0.030596107
0.019586181 0.02855371 0.008676906 0.020133307 0.01752901 0.10047202 0.12138683 0.10784886
0.22866157 0.021125456 0.110595755 -0.03962253 -0.059115306 0.07621948 0.009429195 -0.053927716
-0.03596518 -0.04136588 -0.07302079 -0.10414061 -0.08474617 0.06216398 0.033056214 0.070374236
0.009841167 0.07548779 -0.00994785 0.12510958 0.118033126 -0.10046979 0.10399363 -0.09737124
0.09787813 -0.09838142 0.059471086 0.06742932 0.049101934 -0.07270275 -0.119968966 0.15882099
0.044432208 -0.085546084 0.024839267 0.22058937 0.09618223 0.03109464 0.027409324 -0.04501974
0.2189329 -0.08640289 -0.07817967 0.10903592 -0.044048455 -0.030261464 0.045409154 -0.10749867
-0.005477568 -0.021863177 0.23444505 -0.010024369 -0.039901346 0.10663291 0.0067658015 -0.07826615

bias f4 [64]
00000000: a54c d93d a004 4fbc 5426 893d dfc4 3fbd
00000010: 2c9e e53d c4af 793d 2881 febc d43c 8abd
00000020: 90b9 f03d 8cd0 f83d d0c5 41bc 406f 1d3d
00000030: e4c5 c6bd 226f 29bd ffd2 703d 2f6b a53d
00000040: 2adb 783d f4b9 9abd 5c12 c73d b383 cb3d
00000050: d73a f93c c5a8 d73c 8a4e a3bd 170d 723c
00000060: b0c0 2cbc 5081 ea3d c26f 95bd 1af9 bebd
00000070: 9537 64bd 695b 693d 7353 acba 89e4 e5bd
00000080: 7d2f b7bd edb3 da3d 4adb ca3d 9967 9d3c
00000090: 7282 bcbc 7161 ff3c b25c db3c c373 763d
000000a0: 1573 b73d d679 efbd 8c46 2bbd 89f6 f43d
000000b0: fe61 b0bd 76da d33c 1893 1f3d a322 013d
000000c0: 76ca b5bd 9705 de3d 00fd 353a 1843 acbd
000000d0: 6031 25bc 4f3b 91bd 19e2 763d b7d4 393c
000000e0: 65b7 cebd 8b9c 1ebc 64b6 8f3d aba2 1e3c
000000f0: fa1d 783d b288 debd 0453 fdbd e8fa 653d
0.10610322 -0.01263538 0.06696764 -0.04681861 0.112118095 0.06095864 -0.031067446 -0.06749883
0.11754143 0.12149152 -0.011826947 0.038436174 -0.097057134 -0.04136575 0.05879497 0.08077084
0.060755886 -0.07554999 0.09720299 0.09937229 0.030423565 0.026325593 -0.079739645 0.014773629
-0.010543987 0.11450446 -0.07296707 -0.09324856 -0.05571707 0.05697194 -0.0013147428 -0.1122523
-0.089446045 0.10678849 0.09905107 0.019214438 -0.02301142 0.031174393 0.026777599 0.060168993
0.08957497 -0.1169316 -0.041815326 0.11961085 -0.086124405 0.025861006 0.03895864 0.031527173
-0.08876507 0.1084091 0.0006942302 -0.084112346 -0.010082573 -0.0709139 0.060274217 0.011342219
-0.100935735 -0.009680877 0.0701721 0.009682338 0.060575463 -0.10865916 -0.123693496 0.056147486

weight f4 [256, 64]
00000000: 5229 f8bd b202 febd 8294 0abd c350 bbbd
00000010: e8ed 3c3d 359a d23d 20f2 5cbd f941 80bd
00000020: aff7 4cbd ab07 d7bc 1aa4 a43d 5e34 d13d
00000030: 8058 b13b c06f e6bd 35e4 84bd ecef e23d
00000040: b3d5 19be cbf7 9e3c 9c1b 953d 0b71 65bd
00000050: 7dce 7e3d 278b a9bd 4cff b63d d79f 7bbc
00000060: 27b4 823d 2279 8ebd 8dae bbbd 59bf e23d
00000070: ca2b d7bc 1c57 5b3c 37b6 083d 4c88 b83d
00000080: f087 ecbc 56d2 bdbd eeab e33d 0d2a 773d
00000090: 3cef 5abd dc2a 033e 5097 b9bd 1beb bc3d
000000a0: 1421 99bd 9295 153e 0860 9abd 92d3 5dbe
000000b0: 2185 043e 8184 843d c1e5 e9bc 1a5f ffbc
000000c0: e5ba 973d 487f b2ba 6e50 3a3c 2086 223e
000000d0: bacd 3abd ea7a b0bd 82b8 863d 251d 5e3b
000000e0: 3785 b13d c9d1 0f3d 70c8 f0bc 3a41 883d
000000f0: 7ca5 86bd d0af cbbc b48a e8bd 831d a2bd
00000100: 082a f63d cc87 fabd 80a4 153d 5d4d e03c
00000110: 7808 edbd f88f c23d 6e6a 313d 4fc2 9a3d
00000120: 6c34 d23d 548c e4bd 2236 8dbd 719e 813d
00000130: 0018 6e39 7957 233d d314 ad3d 80bf 1f3d
00000140: f7c1 dcbd c718 cc3c ab1b 303e e107 833d
00000150: e6a1 663d 9d26 4a3d ae6f c83c 9d82 c63c
00000160: 0604 573d d6af 4c3d 06b2 08be c3ce 943d
00000170: 97b5 05bd 0a72 6c3c 0a68 8cbd 208d 483d
00000180: d8b6 90bd 83f5 2fbd 28a6 b73d 9849 cf3d
00000190: e0d7 d33b 1e0e 51bb 8010 97bc a708 6e3d
000001a0: 1475 a4bd 607b 82bb bacc f23d a736 163e
000001b0: ca0d 873d 0161 abbd 5ad9 013e f4d7 b23b
000001c0: 560f 0e3d 6f77 053d 436b df3c 4493 963c
000001d0: 988f cb3d 734b 03be 65d5 5c3d 1bdb 433c
000001e0: f44a 8bbd 33a2 9a3c d430 173c 5066 773c
000001f0: d256 52bd e82c 833c c4be ea3d 594a 53bc
00000200: d07c fcbd 2060 59bd cd88 f73d 31c4 e83b
00000210: 7082 0ebc 98a0 403d f190 e6bd 7c36 ce3d
00000220: c149 db3d 2f49 e73d 487a fc3d 3d73 97bd
00000230: c645 c73d ea4a f93d 7099 26bc a084 a0bd
00000240: 3ac5 14be 088a 4f3d eb03 a03d 5b12 d63c
00000250: 988a 8ebb aa61 633d 317c 103e 564f c13b
00000260: 37cd ce3d 63ad 9cbd 9ecb b7bd bb49 8d3b
00000270: f9c2 a1ba 2029 f83d 3093 7f3d c79c 993c
00000280: 258d 113d e9b9 e4bd 37e5 2c3e 9398 a73d
00000290: 382e e7bc 12a6 763d b4a7 38bd 1d11 94bd
000002a0: 1ebe f7bd b126 ce3d 9d6b 82bd 28e8 b63c
000002b0: df18 83bc b670 8dbd f786 7ebc 1820 b73d
000002c0: e86e 013e bd92 03bd 3513 c53d 186e bebd
000002d0: 2264 07bd 56b0 40bd b8df 8cbd 43c0 113e
000002e0: 86ac 56bd 223e 443c 905a 96bd 3538 fbbb
000002f0: d6a5 553d 8c3f b43d 4cbb 86bd 014c a3bd
00000300: 28cf 6dbd 5611 93bd 41e4 873c 612b e33d
00000310: 5c41 5f3d 4ac0 973d 80c5 58bd 322a a2bd
00000320: 6585 cbbd 31a0 8fbd d6d3 44bd b881 ad3d
00000330: 8471 e3bd 31c1 18bd 0bfd c53b da22 a5bd
00000340: 5283 b93d da05 6bbd eb0c f0bc ce71 75bd
00000350: 1a8f d83d f3d5 8a3d 0c62 a53d 913f 86bd
00000360: dfae 0abd 782e 893d dd9c 3a3c 82b5 633d
00000370: 28d3 85bd 6ad8 e1bd 4719 ddbd e454 843d
00000380: 37f3 953d 5982 853d f2e9 27be fd0f 423c
00000390: 4810 ca3d b336 e5bc 7020 52bc 772d ca3b
000003a0: b012 30bc 4c68 4ebb 1b98 d4bd 3ae7 a9bd
000003b0: c1ba 15bc 28b2 c7bd 1055 3b3d 97e6 cabd
000003c0: c314 f03d 2912 b53d 5ab8 a1bd 078e 0c3e
000003d0: 4d66 33bd f733 a33d 99d1 f03c 10ce 8ebd
000003e0: 2334 83bd 9330 a43d 2030 703c c165 7dbd
000003f0: e144 64bd e04a 6d3d ca95 e83d 0261 6bbd
-0.12117256 -0.12402858 -0.033833034 -0.091462635 0.046125323 0.10283319 -0.053941846 -0.06262583
-0.050040897 -0.026248774 0.080391124 0.102150664 0.0054121614 -0.11251783 -0.064888395 0.11080918
-0.15022926 0.019405266 0.07280657 -0.05601601 0.06220864 -0.08278494 0.08935413 -0.015357933
0.063820176 -0.06956698 -0.09164152 0.11071653 -0.026265997 0.013387468 0.0333769 0.090103716
-0.028873414 -0.09268634 0.11116777 0.060342837 -0.053450808 0.12809318 -0.09062064 0.0922453
-0.07477012 0.14607838 -0.07537848 -0.21662739 0.1294141 0.064705856 -0.028551938 -0.031173278
0.07408694 -0.0013618255 0.011371715 0.15871477 -0.045606352 -0.08617194 0.06578161 0.0033891883
0.08667987 0.035112176 -0.029392451 0.06653066 -0.065745324 -0.024864107 -0.113545805 -0.07915785
0.120197356 -0.122329324 0.036533833 0.02738064 -0.11573881 0.09500116 0.04331439 0.07556593
0.10263905 -0.11159578 -0.06895091 0.063290484 0.0002270639 0.039878342 0.084512375 0.039000988
-0.10779183 0.024914159 0.17198054 0.06397987 0.056306742 0.04935323 0.024467316 0.024232203
0.05249407 0.049972378 -0.1334916 0.07265999 -0.03264388 0.014431486 -0.068557814 0.048962712
-0.07066125 -0.042958748 0.08967239 0.10121459 0.0064649433 -0.0031899284 -0.018440485 0.05811372
-0.080301434 -0.0039819926 0.11855455 0.14669286 0.06594427 -0.083681114 0.1268057 0.0054578725
0.034682594 0.032584604 0.027272826 0.018380769 0.09939498 -0.1282175 0.053914446 0.011954094
-0.068014055 0.01887617 0.00922795 0.015100077 -0.05135233 0.016012624 0.11462167 -0.012896144
-0.123284936 -0.053070188 0.120866396 0.007103466 -0.008698091 0.047028154 -0.11258114 0.10068986
0.10707427 0.112932555 0.12328011 -0.07395027 0.09730105 0.12172492 -0.010168418 -0.07837796
-0.14528361 0.050668746 0.07813247 0.0261318 -0.0043500178 0.05551306 0.14109875 0.00589935
0.100977354 -0.076502584 -0.08974384 0.004311768 -0.0012341432 0.12117219 0.06239623 0.018751515
0.035534997 -0.11168272 0.16884314 0.08183398 -0.028220281 0.06021697 -0.04508181 -0.072298266
-0.12096809 0.100659736 -0.06368182 0.022327498 -0.01600307 -0.069062635 -0.015535108 0.08941668
0.12639964 -0.032122362 0.09622804 -0.092983425 -0.03305448 -0.047043167 -0.068786085 0.14233498
-0.052410625 0.011977704 -0.07341492 -0.0076666125 0.052160107 0.08801183 -0.06578693 -0.07973481
-0.058058888 -0.07181041 0.016588332 0.11092258 0.05450569 0.07409723 -0.052922726 -0.07918204
-0.09937552 -0.07012976 -0.048053585 0.084720075 -0.11105636 -0.037293617 0.006042128 -0.08063288
0.090582505 -0.057378627 -0.029303035 -0.059922986 0.105741695 0.06779089 0.080753416 -0.06555093
-0.033858176 0.06698316 0.011389938 0.05559302 -0.065344155 -0.11027606 -0.10795837 0.06461504
0.0732178 0.065190025 -0.16397837 0.011844632 0.09866387 -0.027980184 -0.0128251165 0.0061699706
-0.010746643 -0.0031495271 -0.10380574 -0.08296056 -0.009138764 -0.097507775 0.04573542 -0.09907263
0.1172271 0.088413544 -0.078964904 0.13726054 -0.043798734 0.07968896 0.029396819 -0.06972897
-0.06406429 0.08017077 0.014659911 -0.06186462 -0.05572975 0.057932734 0.11356695 -0.05746556

bias f4 [256]
00000000: 8f9a 293d f5e3 ca3d 38bd c13d 2010 90bb
00000010: e3a7 983c 7e4b ecbd c536 eabc 3b36 09be
00000020: 150f a53c 5b90 0d3e fd1d 823d 72ce 93bd
00000030: ec0b 87bc 906f b4bd 781e ffbc 2e5f c83d
00000040: 6760 073e a9b8 06bd 0461 733d 0cba a3bd
00000050: f234 1b3d c1f6 3abd 2296 983d e326 66bc
00000060: fe7d 053d 83dc 473d 1a41 dcbd 0098 e8bd
00000070: 72ce a83d e3d7 e83d ec68 04bd 8bf5 b03d
00000080: 6062 8c3c 2ffa adbd 35f6 953d 48cc df3d
00000090: 4baf 46bd 10b0 adbd ad35 b2bd 3842 0e3e
000000a0: 5812 74bd d6ba da3d 3798 0abd d417 94bd
000000b0: 099a eabb bce9 383d b091 273d 3ccb a13d
000000c0: f8a1 213c 5f66 ad3c 0f06 323d f717 093e
000000d0: 98c2 0dbd cffa 3abc 0a94 b3bd d663 873d
000000e0: f81c 863d ac2a 8f3d 5463 d0bd a67c b5bc
000000f0: b326 cbbd 34d5 3fba 7056 3bbc 9065 d5bd
00000100: c488 9cbd 4af6 a83d e128 ad3d a93d 56bd
00000110: 6856 223d a04e 39bd 5779 17bd 0a0f 06be
00000120: d4e6 d03c 2f29 ea3d 860e fb3d e3c2 d73c
00000130: 658d d83d 5f7e 5fbc 8861 78bd f479 95bd
00000140: 42da b8bd e812 e6bc 5e41 973d caf5 e73d
00000150: 6cc2 c63d 4636 b63c 2b94 b8bd 3788 7a3c
00000160: 5169 a13d 27d1 ed3d b3a6 013e cde7 9d3d
00000170: b720 763d 474d c8bd 7b9a b8bc e894 eabc
00000180: 2b9e c8bd 7733 f23d b652 ba3d 12fc e3bd
00000190: 4862 3fbd 1d41 f7bd 6827 87bd c882 b93c
000001a0: ef8c 93bd b94e a13d c05b 71bd 4f91 08be
000001b0: 0373 0a3d 46d5 4a3b b972 883d 1264 88bb
000001c0: cfc3 b83c 6a55 f2bd 7b6f 10bd f2a0 e8bc
000001d0: 4c3d 3b3d 9687 903d 22b0 b1bd 23af 94b7
000001e0: 5862 21bd 402d 76bc 5dda 453c 1ef7 9f3d
000001f0: 8f64 003e 6e39 dcbc 9a70 da3c dfe3 803b
00000200: aba3 183c 5ecb 53bd 3f2d 713d f07a 12bc
00000210: 4d09 d4bc 1c37 333d 5e63 373d 8c1a 2bbc
00000220: 10f3 8cbd 018b 46bd 436f 033e a5c7 1d3d
00000230: 44d0 8bbd d80b 963c a8d7 d03d 4b78 ca3d
00000240: 81d0 8d3d 318a c3bd 4238 533d b205 29bd
00000250: 61a4 b8bd 298f 47bc 9444 76bd 6459 cc3c
00000260: 94d4 8e3d 275c 013e 3e79 cb3d 84cf 143d
00000270: e3ea 6b3d 5b40 c33c 82f8 d9bd 7ed5 d2bc
00000280: 7e58 b63d 968a d43d f96d 88bc 9191 aebd
00000290: d10a 393d f4c7 8d3d b12f c03d 402a 1fbc
000002a0: 948b 263d 4d02 2fbd 7ce7 02bd 34eb 62bd
000002b0: 2f33 a83d 7e14 e73c 5f03 cd3d aaa6 01bc
000002c0: 4c32 a4bd 2a55 913d f600 8bbd f252 8e3c
000002d0: 424e b3bc 5239 a4bb 3a44 d23c 62fd aebd
000002e0: cb4f 1c3d 57d1 07bd bba5 203e 9c9a 883d
000002f0: f2dc c1bd 37db 793d c72f cdbb 0a6d d5bd
00000300: bfb6 343d 10a8 98bd 8151 c43d be15 f73d
00000310: 21ca fe3c 5c65 9cbd ff12 c03d ea60 95bd
00000320: 364f 4f3d 182e e8bc 6959 a1bd 85bb cf3b
00000330: 96ee 73bc 0cff 44bd 58ee 02bc 494f c8bd
00000340: e8d0 833d 7287 aabd c950 bbbd a9b6 db3c
00000350: fdd8 1fbe baf2 b03d 63fe 34bd 4019 8d3d
00000360: efc7 033e a3ee cf3d 1c46 823d fed8 4dbd
00000370: 0e91 0c3d 73e6 0c3e dd41 493d cdcb 093d
00000380: 8834 debd c402 933b 0a5b b9bd 5b86 223d
00000390: 4e0d b1bd fd81 343c 3ca2 9a3d e37c a8bd
000003a0: e03a 9ebd 4187 91bc e291 993d e9d7 763d
000003b0: 246c 41bd 132b 943d 1971 69bc 1099 4dbd
000003c0: 44bb 333d 9b4e 623d 0e28 1dbc 2b91 af3d
000003d0: 3c16 5a3c 0df0 c9bb 00c3 8cbb 65cf fc3d
000003e0: e723 e1bd d243 d53d fa23 923d fa95 eabd
000003f0: 2449 e33d 3cd0 82bd 5070 163e aea2 ae3c
0.041407164 0.099067606 0.09459919 -0.0043964535 0.018634742 -0.115378365 -0.02859057 -0.13399594
0.020148793 0.13824598 0.06353376 -0.07217111 -0.016485177 -0.08810341 -0.031142458 0.09783779
0.13220368 -0.03289095 0.059418693 -0.0799447 0.03789229 -0.04564548 0.074505106 -0.014047357
0.03259086 0.04879428 -0.10754605 -0.11357117 0.08242501 0.11369302 -0.032326624 0.086405836
0.017136753 -0.08494984 0.07322351 0.109276354 -0.048507016 -0.08480847 -0.08701644 0.13892448
-0.059587806 0.106801674 -0.03383657 -0.07231107 -0.0071594757 0.04514478 0.040910423 0.07900092
0.0098652765 0.021166978 0.04346281 0.13388048 -0.034609407 -0.0114123365 -0.087684706 0.06610839
0.06548494 0.06990561 -0.10175195 -0.022154164 -0.09919491 -0.00073178415 -0.0114341825 -0.10419762
-0.076432735 0.08250101 0.08455063 -0.052304897 0.039633185 -0.045241 -0.036980953 -0.13091674
0.025500692 0.114336364 0.122586295 0.026338046 0.10573844 -0.013640969 -0.060639888 -0.07298651
-0.090260044 -0.028085187 0.07385515 0.113261774 0.09705052 0.022242676 -0.09012636 0.015291265
0.07881416 0.11612158 0.12661247 0.07710228 0.060089793 -0.097803645 -0.0225346 -0.028635457
-0.09795793 0.118262224 0.09097807 -0.11132063 -0.046724588 -0.12072966 -0.06599313 0.02264537
-0.07204615 0.07876343 -0.05892539 -0.13336681 0.03380109 0.0030949875 0.066625066 -0.00416232
0.022554306 -0.11832698 -0.035262566 -0.028397057 0.045712754 0.07057111 -0.08676173 -1.772453e-05
-0.03940043 -0.015025437 0.012075988 0.07810806 0.1253836 -0.026882853 0.02666502 0.0039334144
0.009316365 -0.051707618 0.05888104 -0.008940443 -0.025883341 0.04375373 0.0447725 -0.010443341
-0.06882298 -0.04847241 0.12835412 0.038520474 -0.06826833 0.018316194 0.10197383 0.09886225
0.069245346 -0.09547842 0.051567324 -0.041265197 -0.09015728 -0.012180128 -0.060123995 0.024944969
0.0697414 0.1263281 0.099352345 0.036330715 0.057597052 0.023834398 -0.10643102 -0.025736567
0.08903597 0.10377996 -0.016654002 -0.08523858 0.04517633 0.06922904 0.093840964 -0.009714663
0.040660456 -0.042726804 -0.031959042 -0.05540009 0.082128875 0.028208014 0.100104086 -0.007913271
-0.08017406 0.07096322 -0.06787293 0.017373536 -0.021887902 -0.005011716 0.025667299 -0.08544423
0.038162034 -0.033158626 0.15688221 0.066701144 -0.0946597 0.061000075 -0.006261799 -0.10421188
0.044119593 -0.074539304 0.09585858 0.12064694 0.031102242 -0.0763652 0.09378623 -0.072938755
0.05061265 -0.028342292 -0.07878382 0.0063394927 -0.014888426 -0.048094794 -0.007991396 -0.097807474
0.0643633 -0.083266154 -0.09146268 0.026820498 -0.15610118 0.086400464 -0.044187915 0.06889582
0.12869237 0.10152938 0.063610286 -0.050255768 0.034318022 0.13759784 0.049135078 0.033641625
-0.10849863 0.0044864137 -0.090505674 0.039678913 -0.08645116 0.01101732 0.07550475 -0.08226945
-0.07726073 -0.01776469 0.07498528 0.0602645 -0.04722227 0.07234778 -0.014248156 -0.0501948
0.043879762 0.055250745 -0.009592069 0.085726105 0.013310965 -0.0061626495 -0.0042957067 0.12344245
-0.10993176 0.10413326 0.07135768 -0.11454387 0.11097935 -0.06387374 0.14691281 0.021317806

weight f4 [256, 256]
00000000: 986b 8abb 2506 51bc 872f a33d 9441 85bc
00000010: 5b78 4d3b 28a8 27bc 6ec6 863d 1a57 b7bd
00000020: ab53 da3d 33ed b83d 18a1 86bc 944e 6dbd
00000030: fc68 033e 4701 3a3c f473 c9bc d4b8 d4bc
00000040: 8770 4c3c 3e8a 9a3c 2379 363e 0286 68bd
00000050: 2944 33bd 7271 d2bb a995 34bc 7f45 683d
00000060: 27bf 9639 7cf9 8f3d 1fdc 323d 1b00 afbd
00000070: b374 343d 6107 413d 2bd9 2bbd 24b1 2f3d
00000080: e074 013d 3146 b63d 27a3 82bd 60eb 2a3d
00000090: 0c0e 3abc 3d5d df3d 7309 af3c acc9 ce3c
000000a0: 884d fa3c 9dbf 63bb 416e 553c 1ce4 083d
000000b0: 6a95 863c c06b b33a 6ab2 943d fbe4 453d
000000c0: e8f9 883c 0821 ca3c d382 163d 01c8 7d3d
000000d0: c0de e2bc 3ff3 003c f45c 3abd 67a4 3abc
000000e0: dcee 133d c794 77bd 1ad8 62bd 521a 2a3d
000000f0: 6b9b cc3c acb4 7f3c a8c7 c23c d0b0 f3bc
00000100: 6a4a 14be fd62 3f3c a2dc 07bd 7136 193d
00000110: fd65 d23a 7da2 2ebd 3592 dabc d1a9 123d
00000120: af78 2ebd f787 aa3d 6cd3 be3c efbe 9cbd
00000130: 8de7 023d 7f37 ec3a d003 f23c 85e7 003d
00000140: 7e58 2b3d 883d a5bc 5ce1 d4bc 8f6f 8dbb
00000150: d83d 593d 4779 2b3d b265 63bd e598 58bd
00000160: 9d57 f93c 9613 013d ec50 4bbd 8ce7 3d3d
00000170: 29fc 7c3d dcdc 2abd 482f 41bc aa5a 92bc
00000180: 4e10 b8bc ce13 d7bc 3578 d4bc aab8 743d
00000190: 376e 2d3d bfe3 45bd 20f1 7d3c c0e9 07bb
000001a0: b314 ca3d f776 8cbc e043 c43c a704 ecbd
000001b0: 51be 42bd c2be 013d 908d 95ba e7dd db3d
000001c0: a063 013d e760 283c 3974 a1bc 8ad3 8c3d
000001d0: 3322 223c 120a 9dbd 64d8 103d e20f db3c
000001e0: b458 1dbe a2cb 24bd 605e b0bc cc54 693d
000001f0: ba73 c4bc 8d21 743d 3a02 153d 204f 35bd
00000200: 33f6 653d 1cc9 363d fcbb a03c d4c5 47bd
00000210: 8ad2 0bbd ba72 363d 3ca8 f43c 7c05 343c
00000220: 9885 dfbc 3652 6dbc 5f22 933d 3cb3 7d3d
00000230: 58a1 5cbd f325 373d 02c0 93bc 71dd 0e3b
00000240: ea3d a5bd 136c 63bd 9f56 fcbc a82f 53bd
00000250: c6e4 0e3d 02c7 8ebd c027 84bd af46 c53c
00000260: f3ac 8d3d d3e8 19bd 2fe3 febc cfa7 783b
00000270: 0896 1a3e 0f7e 02bd 80f1 523c 2b38 17bd
00000280: ffed 30bc 197b 2abd b258 8b3d 517f 2abc
00000290: 5dff bb3c 81e3 883c 41f0 00bd 74d8 5b3d
000002a0: a9c9 09bd d96c a7bc 8887 68bd dc1a e6bc
000002b0: 65c0 b7bc 7dd1 cf3d e62c 9d3d a1be a93d
000002c0: 24b4 e23c 95b3 d73c 217a 123c c8b9 07bd
000002d0: 89b3 c63c e401 8bbc c32d 433c 374e 86b9
000002e0: 9ecc 63bc deb8 8f3c 2f6f 0dbd 8979 843d
000002f0: 44d4 d5bb f415 b83d 9476 473c 22e6 db3c
00000300: adf7 46bd 1088 b53c 5887 883d 7dae 0a3d
00000310: 9e56 a13c 20da 323c 77bd 203d 0976 ea3c
00000320: 8eb1 f5bc 3b5e c0bb d67c 4cbd 1335 3d3c
00000330: 2ba6 12bd 27ee e5bb de92 a03c 85b1 5dbc
00000340: 639b bdbc b66f 5dbd 0623 40bd 8173 953d
00000350: 0337 12bc bafe 243d 7dac edbd 9a96 4b3c
00000360: abd6 8a3d 65cf 483d e49d 653d cd1d e23c
00000370: 5c30 6fbd 96a7 5f3d 9031 e73d 75b3 b63c
00000380: 7816 dabc 90a7 0f3d 488d c03c 2798 d4bc
00000390: b03f 0abc ebac f83a c5a0 093d 05fb a63d
000003a0: 705b c9bc 85b2 623d 289a 583c e4b9 eebc
000003b0: 8334 863d c60d 923c e920 93bb 4031 fbba
000003c0: 06de 553d af3c 323d 6d2b 6dbc 567d ccbc
000003d0: f2b3 933d 260c ea3c 2e7e 2f3d 0299 a1bc
000003e0: bdbf 2a3d 1a39 90bc 2912 673d 2084 a83b
000003f0: 003c 43bd f8c1 32bb 4a4e 113e f299 523d
-0.004224252 -0.012757813 0.079680495 -0.016266622 0.0031352255 -0.010232963 0.06580816 -0.0895216
0.1066049 0.09029617 -0.016434237 -0.057936266 0.12833017 0.011352844 -0.024591424 -0.02596704
0.0124780005 0.018864747 0.17819647 -0.056768425 -0.043766174 -0.006422215 -0.01102201 0.0567069
0.0002875265 0.07030007 0.043666955 -0.08544942 0.044056606 0.047126178 -0.041955154 0.042893544
0.0316056 0.08900107 -0.06378775 0.041728377 -0.011355888 0.10906456 0.02136681 0.025242649
0.030554548 -0.0034751662 0.013026775 0.033420667 0.016428668 0.0013688728 0.07260592 0.048314076
0.016720727 0.024673954 0.036745857 0.061958317 -0.027694106 0.007870494 -0.045498803 -0.011391736
0.036116466 -0.06044462 -0.05538187 0.041529007 0.024976453 0.01560704 0.023776844 -0.029747397
-0.14481512 0.0116813155 -0.033169396 0.037405435 0.0016052123 -0.04263543 -0.026681045 0.03580648
-0.04259556 0.083267145 0.023294173 -0.07653605 0.031959105 0.001802191 0.029542834 0.031470794
0.04183244 -0.020170942 -0.025986366 -0.0043162773 0.053037494 0.041863706 -0.055516906 -0.052880187
0.030437285 0.03151282 -0.04963772 0.0463634 0.061763916 -0.041714534 -0.011791058 -0.017865498
-0.022468712 -0.02625456 -0.025936225 0.059746422 0.042341437 -0.0483129 0.015499383 -0.002073869
0.09867229 -0.01714657 0.023958147 -0.11524325 -0.04754478 0.03167606 -0.0011409987 0.10735684
0.03158915 0.01027701 -0.01970874 0.068762854 0.009895849 -0.076679364 0.035362616 0.026740972
-0.15365869 -0.040233262 -0.021529377 0.056965634 -0.023980964 0.05960231 0.036379077 -0.044264913
0.056142997 0.044625387 0.019620888 -0.048772648 -0.034136333 0.044543006 0.029865377 0.010987636
-0.027285382 -0.014484933 0.0718429 0.06193851 -0.053864807 0.044713926 -0.018035892 0.002179947
-0.0806845 -0.05552299 -0.030803023 -0.05155912 0.034886144 -0.069715515 -0.06452894 0.024081556
0.06917753 -0.037575554 -0.031114189 0.0037941819 0.15096295 -0.0318585 0.012874961 -0.0369188
-0.01079893 -0.0416213 0.06804027 -0.010406331 0.022948915 0.016710045 -0.031479124 0.053673223
-0.033639584 -0.020437645 -0.056769878 -0.02808898 -0.022430608 0.101473786 0.07674579 0.08288313
0.027673788 0.026330749 0.008940251 -0.03313616 0.02425553 -0.016968675 0.011912766 -0.00025616746
-0.013903765 0.017544206 -0.03452986 0.064684935 -0.006525548 0.08988562 0.012174267 0.026843134
-0.048576046 0.022159606 0.0666644 0.03385781 0.019694623 0.010916263 0.039243188 0.028620737
-0.029991891 -0.005870608 -0.04992374 0.011548298 -0.035803 -0.0070169154 0.019601282 -0.0135310935
-0.023145383 -0.054061614 -0.0469084 0.07297421 -0.008924249 0.04028199 -0.11605165 0.012426043
0.06779226 0.04902591 0.05605878 0.0276021 -0.05839573 0.05460318 0.1128875 0.022302369
-0.026622042 0.03507191 0.023504868 -0.025951458 -0.008438036 0.0018972432 0.033600587 0.08153347
-0.024579734 0.05534603 0.013220347 -0.029141374 0.065529846 0.017828833 -0.004490007 -0.0019164458
0.05221369 0.043514904 -0.014475686 -0.024962109 0.07212056 0.028570246 0.042844944 -0.01972628
0.041686762 -0.017605353 0.056413803 0.0051427037 -0.047664642 -0.002727626 0.14190021 0.051416345

bias f4 [256]
00000000: 85f4 1c3b c99c 4cbd cff0 3b3d abc1 a33c
00000010: ff75 31bd 2c7f eabc 520a a13c e494 863d
00000020: 377c 2f3d 27d6 6f3c a11f 673d 9382 8b3d
00000030: a40e a7bc 330c 60bd 2282 a13c a0c5 82bc
00000040: 8039 a7bb 4e3c 2ebd 78b0 cebc 726a f33c
00000050: 4700 13bd 1b00 87bc 4117 83bc a98c 493d
00000060: 4099 73bd 78ba e93b 3723 193d d7b5 393d
00000070: 124a 473d 2e69 9dbd a0a2 b8bc 74f1 d8bc
00000080: 8909 c83c 1946 e9bc a15c a5bd 6a20 3c3d
00000090: 9599 a5bd 898f 1b3d 48ee cabc 5ca9 3a3d
000000a0: a0c3 613b 46bf 00bd 3534 f23b e842 8cbc
000000b0: b61d 8fbc bc53 2d3d 7991 2cbd ca95 5a3d
000000c0: 4627 3cbd 0a62 41bd e4bb d5bc b27a dd3b
000000d0: e09b 69bd ffef 77bd 2034 ddbc 0382 46bd
000000e0: 2ac3 913c 2e79 3dba a02c 9c3c e4d9 803d
000000f0: 8d86 db3c 22ef 183d 5736 6a3d 406c b83b
00000100: 004d 783d 88af 5a3d 1811 e13c 2e2f 29bd
00000110: 73a6 9f3c c5df 3dbd 6fb3 81bd 397d 493d
00000120: c0c0 70bc 10b2 e1bc 08b3 69bc 4c07 7bbd
00000130: 3b73 18bd bb58 11bd 4410 1bbd efe7 283d
00000140: a5a8 f43a 7e63 2ebd d5df bdbc a907 853d
00000150: 2bcc fcbc ec0c bc3c 2d6a 733d 4a4d bc3c
00000160: e015 d8bc 91fd 0f3d aae5 f8bc 7536 9a3c
00000170: 00d4 fcbc 2f34 a33c 6a86 a4b6 9d4e 6e3d
00000180: 0c38 d1bc 8368 84bc 315f 3a3d aa4f a8bb
00000190: 25c7 063d 5b02 2b3d 89f2 64bd b2fa 543d
000001a0: 1507 a83c 5001 7a3d 0e32 9e3c 9085 79bc
000001b0: fe46 763d 7d84 6c3d fe5b 60bd 14b5 42bd
000001c0: cb02 fbbc 52f6 efbc bb10 55bd d9bc 673d
000001d0: cc7d 94bc cc0f 2c3d 70fe f13b 0880 6f3d
000001e0: cc90 a5bc bc34 6dbd c78f 13bd 0d3c 013c
000001f0: a222 78bd c15d e8bc 65c8 863d 546a 6d3d
00000200: f446 0dbd fecd 933d aa3a 34bc 1811 65bd
00000210: cfa2 54bd 64c6 b03c dc4b 363d 2f5b f9bb
00000220: e8d2 1cbd 72f1 1b3d a03a 5ebc a27d 4bbd
00000230: 2b66 5abc 6d40 aa3c 7054 2e3c 34a6 9cbc
00000240: 0219 753d 8a0a 0cbc 6275 1bbd fae1 38bd
00000250: bfb9 cdbc e77b 8a3d 5493 a9bc c416 1b3d
00000260: f9a1 73bd 3c99 363d c55e 08bd a460 9a3d
00000270: 5c34 32bd 2265 5e3d 6ed7 053d 7672 863d
00000280: 1281 b7bd 50bb 21bd 3060 75bd e024 883b
00000290: 64e9 213d 30b6 953b 7da9 933c 8688 08bb
000002a0: e2d4 813d 6f81 21bc 2ab6 713d 00f3 eeba
000002b0: 2458 abbd 1d98 82bd 683b 3abc e7b6 b6bc
000002c0: 7aa3 a73c f6cd 1cbd 4f45 743c 04ab 003d
000002d0: 3b94 19bd 962c 00bd 7507 81bd bf9e 023d
000002e0: b072 773d c412 6bbd d4ae 51bd 0215 4bbd
000002f0: 2d61 223c 8fb4 503d 35a9 173a d458 843d
00000300: 57c8 7d3c 86b1 36bd a748 d2bc 2e09 3e3c
00000310: 54e8 7ebd 2203 a7bd f001 22bc 70af dfbc
00000320: 4752 703d 5bde 44b9 331f 783d 9071 893b
00000330: 9a3e d6bd a4ea 70bd 1860 e1bc 7b11 96bc
00000340: e07d cabc 6370 1f3c db37 31bc 2caf 113d
00000350: fe94 6f3d a57c 4f3d 4673 c2bc ec36 693d
00000360: b6c8 28bd 6ce0 3abd 43f0 f8ba ff35 673d
00000370: 2670 843d c214 523d 1372 a1bc 404e 4ebc
00000380: 8155 01bc 0b3d 1cbd 6ec6 f53c b9a0 9dbb
00000390: b84a 7abd e2bf d13b 2dd1 f6bb 2b14 963b
000003a0: 0b0a 54bb 5fe2 15bd 76fe 8fbc 5861 18bd
000003b0: 90d6 9e3d 8d9f 37bd 95ae 063d 3b2a 2cbd
000003c0: 4a76 583d 3065 683c 620f cfbc 9a3a 22bb
000003d0: 8d46 653c 856a 94bd dcc4 22bd c0e6 4bbd
000003e0: af15 593c 326f b9bd d15e 31bd 2db5 4cbd
000003f0: fa0e c1bc 1a95 463c cbf6 573d 61e5 26bb
0.0023949456 -0.04995421 0.04588395 0.019989809 -0.04332542 -0.028625093 0.019658241 0.065713674
0.04284307 0.01463846 0.056426648 0.068120144 -0.020392723 -0.054699134 0.019715372 -0.015963376
-0.00510329 -0.04253798 -0.025230631 0.029713843 -0.035888936 -0.016479542 -0.0160023 0.04920641
-0.059472322 0.0071328245 0.0373871 0.04533943 0.048654623 -0.07686077 -0.022538483 -0.026482321
0.02441861 -0.028475808 -0.08074308 0.04592935 -0.08085934 0.037978683 -0.024771824 0.04557167
0.0034448877 -0.031432413 0.0073914775 -0.017121747 -0.017470222 0.042316183 -0.04213092 0.053365506
-0.04593589 -0.047212638 -0.02609057 0.006759011 -0.05703342 -0.060531612 -0.027002394 -0.048463833
0.017793257 -0.0007227835 0.019064248 0.06291559 0.026797557 0.03733743 0.05718073 0.005628139
0.060620308 0.053390056 0.027473971 -0.04130476 0.019488549 -0.04635598 -0.06333052 0.049191687
-0.014694393 -0.027550727 -0.014263876 -0.061286256 -0.037219267 -0.03548501 -0.03785731 0.041236814
0.0018665983 -0.042575352 -0.02317802 0.06495602 -0.030859074 0.02295538 0.05942743 0.022986073
-0.026377618 0.03515393 -0.03038295 0.018824795 -0.030862808 0.019922344 -4.9032287e-06 0.05818044
-0.02553942 -0.016163116 0.045500938 -0.00513645 0.032904763 0.041750293 -0.055895362 0.051996894
0.02051119 0.061036408 0.019310977 -0.015229598 0.060126297 0.05774354 -0.05477523 -0.04753597
-0.03064098 -0.02929226 -0.05201791 0.056576584 -0.01812639 0.042007253 0.0073850676 0.05847171
-0.020210646 -0.05791162 -0.03602579 0.007887852 -0.060579903 -0.028365018 0.06581191 0.05796273
-0.034491494 0.07217024 -0.011000315 -0.055924505 -0.05191308 0.021578975 0.04450594 -0.007609747
-0.038287073 0.038072057 -0.013563782 -0.04968036 -0.013330023 0.020782674 0.010640249 -0.01912222
0.059838302 -0.008547435 -0.03795374 -0.045137383 -0.025112985 0.06761914 -0.020700134 0.037863508
-0.05948064 0.04457973 -0.033293504 0.07537964 -0.043506965 0.054295667 0.032676153 0.065648004
-0.08960165 -0.039485276 -0.059906185 0.0041547865 0.03952922 0.0045688376 0.018025154 -0.0020833327
0.06339432 -0.0098575195 0.059011616 -0.0018230379 -0.08366421 -0.063766696 -0.011366703 -0.022304012
0.020463694 -0.038282357 0.014909103 0.031413093 -0.03749488 -0.03129252 -0.063002504 0.031889673
0.06041211 -0.057390943 -0.05119212 -0.04958058 0.009910864 0.050953444 0.00057854067 0.06462255
0.015489659 -0.044602893 -0.025669409 0.011598868 -0.062233284 -0.081548944 -0.009888157 -0.027305335
0.058672216 -0.0001877485 0.06057663 0.004194446 -0.10461159 -0.05881752 -0.027511641 -0.018318882
-0.024718225 0.009731385 -0.01081654 0.035567448 0.0584917 0.05065598 -0.023736607 0.056937143
-0.041207038 -0.04562418 -0.0018992502 0.05644798 0.06466703 0.051289327 -0.019707715 -0.012591898
-0.007893921 -0.038144153 0.030001845 -0.0048104194 -0.061106414 0.006401048 -0.00753226 0.004580041
-0.003235462 -0.036592837 -0.017577391 -0.03720221 0.07755768 -0.044829894 0.03288134 -0.04203246
0.052847184 0.014184281 -0.02527589 -0.0024754168 0.013993871 -0.072468795 -0.03973852 -0.049780607
0.013249799 -0.09054412 -0.043303315 -0.04997747 -0.023566712 0.0121205095 0.052725594 -0.002546631

weight f4 [1, 256]
00000000: 70a3 54bd ce10 913d d853 ecbc 237b 72bd
00000010: f0bf 93bd 3c26 1fbd 0c2a 3f3d 1341 33bd
00000020: 6e99 a9bc 41d4 2fbd 5b59 48bd 8720 eabc
00000030: c43c 903c d2cc b2bd f429 573d 1066 6b3c
00000040: 004d edba 80e2 e6bc 42bd 7e3d b10d 993c
00000050: 0862 48bd 1af8 fa3c 1f91 653d ec2c 763c
00000060: 161a 5d3d 8435 203d e2b5 653c 6e23 85bd
00000070: 6b76 a6bd 362b e13d dd23 3a3d 0085 c9b9
00000080: 7690 913d ed90 a7bd 26ec 6bbd 2e20 243d
00000090: 1dfa fe3d 2cc3 453d 9ae6 19bd a370 383d
000000a0: 2ca1 cb3c 10b9 8abd 269b 72bc 8618 eb3d
000000b0: 15e3 0abe 720c 67bd b4b7 9a3d 7a44 6b3d
000000c0: ee8f 20bd e3c3 0d3d 10b0 c13c 7081 87bd
000000d0: 2210 a5bd ceef 95bd 8094 ecba dd67 64bd
000000e0: ddb9 473c 93c7 113d 512a 8bbd 04b1 4fbd
000000f0: aacf b4bd 8040 4dbd 390b 743c f424 4dbd
00000100: 7de3 81bd 452c 673c 056a f13c 843b 4a3d
00000110: 6e24 233d 1d03 86bd 360d f83d 936c 9e3d
00000120: 040d b1bc e32d b03d 923a 963d 36a5 063d
00000130: 44ba 443c 5a5f 8abd 2c87 94bc c1db 473c
00000140: 9ee3 8c3c 0740 7fbd 9084 773d fe52 683d
00000150: 2865 62bd 3bba 8d3c 3620 17bd c057 23bd
00000160: 3c6f 753d 8394 3dbd 5020 f2bc f068 02bd
00000170: f2f3 7c3d 9d99 993d d2be 7c3d 7277 833d
00000180: 415b 823d 0c22 813d e2a7 783d 13ae 193d
00000190: f5d4 913c 1afa 833c 8be3 a9bd ad32 bc3c
000001a0: 03a4 fb3d 48b1 a2bd bade 123d 50ec a03b
000001b0: 4006 9a3d 819f 0ebd 901c 343c 20bb 02bd
000001c0: 79f3 f73c 38e0 2e3d 6e5a b4bd 4f1b 443d
000001d0: bd90 80bd d33f 50bd 9ccd e1bc 596b 9c3c
000001e0: 5467 8cbc 50f6 c33b 76e3 fabc 74b6 5c3d
000001f0: 8b62 a9bd 5b7f 07bd 79b5 6fbd 8c62 f33c
00000200: 4c81 29bd abe8 1ebd 5b9c 293d 949f 8cbc
00000210: e027 323d bbf0 383d 120d 2c3d b623 fbbc
00000220: 8486 19bd 1abd 8f3c a09d 4c3b b0a3 26bd
00000230: 5d6d 8c3c 1955 823d 808c adbd 5a62 213d
00000240: 7fb3 3e3d a8bd f53c 9d05 6c3d 3a56 2cbd
00000250: 2cd3 c83c 5422 74bd f00c 07bd 42ad 29bd
00000260: a10a 413d dc45 9dbd b1b3 763d 539a a6bd
00000270: 23e5 1cbd fea8 bd3c 3f37 ee3c 8a91 8b3d
00000280: 5a39 223e 7e33 55bd 9874 523d c06a eebb
00000290: 09b0 c03c 18f8 273d efe1 aebd 9741 c53d
000002a0: 8881 6f3d b537 353d ef9c 5b3d 58ae 34bc
000002b0: 191b df3d 6595 de3c f8af 2a3d 0be2 7bbd
000002c0: a36d 8c3d ce7b b2bd 3395 d1bc 4951 8e3d
000002d0: b4b5 293d d6d9 0fbd c052 08bd 54eb 67bd
000002e0: 62e3 9b3d e84b 973c 09e2 a7bd c253 2a3d
000002f0: 03aa 69bd 55ee 233d 87b1 843c c047 e8bc
00000300: 6413 9abd 2cbb efbd 4a42 113d 58eb 473c
00000310: 025b 26bd 370d 92bd f76b 18bd 5048 7d3d
00000320: b501 17bd 109f 24bd 61c4 7a3d b050 0b3d
00000330: 56a7 8d3d 00ff 913b d85a 3fbc 106b b43d
00000340: 4e12 0c3d ea04 4ebd 96bb 36bd bb8e efbc
00000350: fb3d ed3c 19c1 1abd 6a94 7cbd 3bc9 f93c
00000360: 1c8d 583d 06ae 40bd 4ff5 823d d2bd 383d
00000370: 7fc6 77bd 77d9 2f3d 6041 633d 705d 493d
00000380: 44cf e9bc e901 2fbd f221 1c3d 0c78 2a3c
00000390: a44d f63c a8cd b1bd dbaf 823d f043 7dbd
000003a0: 5781 48bd 676a a03c 8092 7cbd aa6e 61bd
000003b0: cb27 4bbd e2fa c0bd 91b3 883d 644a 89bd
000003c0: 9d3e 21bd 34d4 e93c 6d08 d83d fd91 48bd
000003d0: cef4 ddbc 5a2e bdbd e8ec 5a3c c00d df3c
000003e0: e4a6 823d a64e 053e 4363 743d 598b 48bd
000003f0: 9da2 a23d ce8f 71bd d20c 673d 26e8 5fbd
-0.05191368 0.07083283 -0.028848574 -0.059199464 -0.072143435 -0.038854823 0.04667096 -0.04376323
-0.020703044 -0.04292703 -0.04891334 -0.028579963 0.0176071 -0.087304726 0.052530244 0.014367595
-0.0018104613 -0.028184175 0.06219221 0.018683286 -0.048921615 0.030635882 0.0560466 0.015025359
0.053979956 0.039113536 0.014020415 -0.06500898 -0.08128055 0.1099457 0.04544436 -0.000384368
0.07107632 -0.08181939 -0.057598256 0.04006975 0.12450049 0.048281834 -0.037573434 0.045029294
0.024857126 -0.06773579 -0.014807498 0.11479287 -0.13563187 -0.056408353 0.0755457 0.05743835
-0.039199762 0.03461064 0.023643523 -0.06616485 -0.08059718 -0.0732113 -0.0018049628 -0.055763114
0.012190309 0.03559072 -0.067951806 -0.050705925 -0.08828671 -0.05011034 0.014895254 -0.05008407
-0.06342218 0.014109676 0.0294695 0.049373165 0.039829664 -0.065435626 0.12111895 0.07735553
-0.021612652 0.08602502 0.0733539 0.0328724 0.0120073 -0.06756468 -0.018130861 0.0121983895
0.01719838 -0.06231692 0.060429156 0.056719773 -0.05527225 0.017300716 -0.036895953 -0.039878607
0.059920534 -0.04628421 -0.029556423 -0.031838357 0.061756082 0.075000025 0.061705418 0.06419267
0.063650616 0.06305322 0.06070698 0.037519526 0.017801741 0.016110469 -0.082953535 0.022973383
0.12287142 -0.0794397 0.03585694 0.004910983 0.07520723 -0.034820084 0.010993138 -0.031916738
0.030267464 0.0426943 -0.088063106 0.047877606 -0.06277607 -0.050842118 -0.027563863 0.019094156
-0.017139114 0.0059802905 -0.03062604 0.05388494 -0.08270749 -0.03308044 -0.058522675 0.029710077
-0.041383073 -0.03879611 0.041408878 -0.017165937 0.04349506 0.045151453 0.042004652 -0.030656677
-0.0374818 0.017546225 0.0031221882 -0.04068345 0.017141992 0.06363887 -0.08474064 0.039400436
0.0465579 0.029997662 0.05762254 -0.04207442 0.024514757 -0.05960305 -0.032971323 -0.041424997
0.047129277 -0.0767934 0.06022996 -0.08134904 -0.03830446 0.02315187 0.029079078 0.06814869
0.1584219 -0.05205106 0.051380724 -0.007275909 0.02352144 0.041008085 -0.08539187 0.09631651
0.05847314 0.04424258 0.05361646 -0.011027895 0.1089384 0.027170846 0.041671723 -0.06149487
0.06856849 -0.0871502 -0.025583839 0.06949098 0.04143305 -0.035119854 -0.03328204 -0.05662091
0.07611729 0.018468812 -0.0819741 0.041583784 -0.0570469 0.040022213 0.016197933 -0.028354526
-0.0752323 -0.11705622 0.03546361 0.012202106 -0.040614136 -0.07131427 -0.03721234 0.06183654
-0.036866862 -0.040190756 0.061222438 0.034012496 0.069166824 0.004455447 -0.011679374 0.08809483
0.034197144 -0.050297655 -0.04461249 -0.029242864 0.028960219 -0.03778181 -0.061664976 0.030491462
0.052868947 -0.04704096 0.06394445 0.0451029 -0.060492035 0.042932 0.05548227 0.049161375
-0.028541215 -0.04272643 0.03811831 0.010404598 0.030066319 -0.08681804 0.06381198 -0.06183237
-0.048951473 0.019581987 -0.06166315 -0.055037178 -0.049598496 -0.09422852 0.066748746 -0.06703642
-0.039366353 0.02854357 0.10548482 -0.04896735 -0.027094271 -0.092373565 0.013362147 0.027228236
0.06379488 0.13018283 0.059664976 -0.048961017 0.07941172 -0.058975033 0.05640871 -0.054664753

weight f4 [64, 2]
00000000: 547c 363f 2e03 fbbd 8d94 053f 0cc3 b1be
00000010: fb44 493d 51af 063e a5a9 b1be 36e6 06bf
00000020: e519 593e d15e 963e cd16 93be 0d5d 043f
00000030: 5dff f23d 7d3b 74be bcb2 b33d 96c0 483e
00000040: d9a8 4abe bf2c ffbd d2c8 0fbf a5ec 33bf
00000050: d3eb ab3e 35d8 f33e f27d 833d 6909 893c
00000060: 0f74 223f a422 463d 207a 5a3e ee08 933e
00000070: 88f7 08bf d54a e3be 55a7 073e 99a5 66bd
00000080: 21a5 30bf 48a3 ecbd d378 773e 2ccf 17be
00000090: 0455 823e 6692 9abe 3cd2 8bbe 3a3f 1dbf
000000a0: 410e e63e 8d47 e23e 9cd4 31bf e480 a3be
000000b0: 9986 863e 191c 91be bd3a c0be ef8e 99be
000000c0: d52c b9be 3b94 3abe fc96 2dbf 3119 223f
000000d0: 9de2 003f 2394 1bbf 5070 8c3e cad6 273f
000000e0: 300e 49be 10db 02bf 64e1 20be af3e 98be
000000f0: b5f7 293e b1d4 0e3f b8bb d73d 5aeb 223f
00000100: fd85 0e3f 9e50 febe ab72 183f a44c 1b3f
00000110: 24c0 aabe 1f7c 4ebd 3c33 333e 5f22 5d3e
00000120: 95e2 8dbe af87 503e b6bc 0abe 4601 8a3d
00000130: 0a86 a5be 729f 2c3f 2840 cdbe f464 d33e
00000140: 89cb 32bd 93f2 1dbf d099 96bd 3f3b 103f
00000150: 6c88 fdbe 3d5c ea3e 6506 a5be 34b4 f23e
00000160: e585 043e 7c80 093f 692a 1e3e a3b2 8e3e
00000170: cfa1 c13d 5ee8 9fbe f526 473e bce5 593e
00000180: 571f 2f3f ef8c ccbd 6816 ffbd 6479 14bf
00000190: b59b f13e e50c e9be 0404 c4bd b745 183f
000001a0: 6037 debe 21c8 1c3f c722 af3e fff4 1abe
000001b0: 331e 213f 98c5 0cbf 866e 9ebe fa41 703e
000001c0: d56a 4b3e ebe7 913d c6e2 d63e 220e 493d
000001d0: e962 c13e 54d5 eabe 42f0 aebd 508c ce3e
000001e0: 3cc8 36be ee69 b9bc af80 fbbe 341e 76be
000001f0: c0a5 0a3f baf1 1b3f 3f4f 933e 6f5c 2f3f
0.7128346 -0.12256466 0.52179796 -0.3471912 0.04913805 0.13152815 -0.3469974 -0.52695024
0.21201284 0.29369214 -0.28728333 0.51704484 0.11865113 -0.23850818 0.08774325 0.19604716
-0.19790973 -0.124597065 -0.561658 -0.70282966 0.33578357 0.4762589 0.064205065 0.01672812
0.6345834 0.04837288 0.2133565 0.2871775 -0.535027 -0.4439303 0.13247426 -0.05631027
-0.69001967 -0.11554581 0.24167185 -0.14825124 0.25455487 -0.30189818 -0.27308834 -0.614246
0.4493275 0.44195214 -0.6946504 -0.31934273 0.26274565 -0.2834175 -0.37544814 -0.29991862
-0.36167017 -0.18220608 -0.6780851 0.6331969 0.50345784 -0.60772914 0.27429438 0.6556212
-0.19634318 -0.5111551 -0.1571098 -0.29735324 0.16598399 0.5579329 0.105338514 0.6364037
0.556732 -0.4967088 0.5954997 0.6066382 -0.33349717 -0.05041134 0.17500013 0.21595143
-0.2771193 0.20364259 -0.1354855 0.06738524 -0.32328826 0.67430794 -0.4008801 0.4128796
-0.043651138 -0.61698264 -0.07353556 0.563404 -0.49518144 0.45773497 -0.3223144 0.4740311
0.12941702 0.53711677 0.15445866 0.27870664 0.09454691 -0.3123197 0.19448455 0.21279043
0.68407196 -0.099878184 -0.124554455 -0.5799773 0.47189108 -0.4551765 -0.095710784 0.59481376
-0.43401623 0.6124287 0.3420622 -0.15132521 0.62936705 -0.54989004 -0.30943698 0.23462668
0.19864972 0.07124313 0.4196989 0.049085744 0.37770775 -0.4586588 -0.08541919 0.40341425
-0.17849821 -0.022633519 -0.49121615 -0.24034959 0.54159164 0.6091572 0.28771397 0.6850042

bias f4 [64]
00000000: 8117 2cbf 3643 053f 563b 79be f642 1f3f
00000010: fc0f 99be 6095 a9be 4a62 9e3e 6015 bfbe
00000020: 10a8 2a3f 2305 d13e 7689 363d 5978 0a3e
00000030: 2adf efbe 64bd 44be 6d2d f23d 4bad 883d
00000040: 5ae0 2dbf 356c 21be bc2f c73e 7529 a8be
00000050: 5a13 3ebe a134 8c3e db47 62be 2963 fbbe
00000060: c149 643d 8b75 27bf 90e8 193f 46b4 09be
00000070: 01cd c3be 733d 65be feba 103f 247b 4abe
00000080: 43d6 153e 5c2d 073f 0aad c9be 20ec 32bd
00000090: 8607 b6be 59ff 59be fcff aabe 658e 263f
000000a0: a2e1 f73e bc09 ef3e c4d3 263f 6c2e 173f
000000b0: 2079 843e b8fc 03bf b2f7 e3be 4973 9e3e
000000c0: 6ad3 eabe 837d 0bbf 2697 29bf 8748 89be
000000d0: b4a6 1fbe 1399 b5be eb5f f0be 0426 1abe
000000e0: 2385 b03d df18 103f 2795 d7be 55c8 a53e
000000f0: f879 c5be 0c4b ecbe 317a 1bbf e714 23bf
-0.67223364 0.5205568 -0.24339041 0.6221155 -0.29895008 -0.33121777 0.30934364 -0.37320995
0.66662693 0.40824232 0.044564687 0.13522471 -0.46849948 -0.19212872 0.118250705 0.06673678
-0.6792046 -0.15763934 0.38903606 -0.3284413 -0.1856207 0.27383903 -0.22097723 -0.4909909
0.0557344 -0.6541373 0.6012049 -0.13447675 -0.38242343 -0.22386722 0.5653533 -0.19773537
0.14632516 0.5280359 -0.3938983 -0.043682218 -0.35552615 -0.21288814 -0.33398426 0.65061027
0.48414332 0.46687114 0.6516688 0.5905521 0.2587366 -0.51557493 -0.44524914 0.3094733
-0.4586442 -0.5448839 -0.6624626 -0.26813146 -0.15590936 -0.3546835 -0.4694818 -0.15053564
0.08619144 0.5628795 -0.42105982 0.32379404 -0.38569617 -0.46151006 -0.60733324 -0.6370377
